models/electricity_dt_1/ConvTransformer_electricity_dt_1_kernel6_start_3heads.pth (torch_old, 85428 bytes, 147 tensors)

token_embedding.weight f4 [370, 4]
0.04513803 0.0016046745 -0.21680586 -0.13738729 0.08217006 -1.1211233 0.028633606 -0.82313377
0.02695178 -1.0785044 0.08474969 -0.3262253 0.06509945 -1.8171045 -0.1615805 -0.35034657
0.08052169 -0.58268255 -0.0874077 0.040592577 0.0766347 -1.8628014 -0.13533022 -0.072520435
0.054983873 0.3207554 0.044319447 -1.7662306 0.0835115 -0.8705684 -0.10518047 -0.8483882
0.062490813 -3.0919898 -0.26176593 -0.5455057 0.07701851 -1.7143788 -0.056320753 0.020658938
0.08033866 -1.0614209 -0.219143 -0.26205704 0.102340475 -1.0275562 0.6125833 2.0662465
0.08444904 -1.0232947 -0.1220983 0.38497412 0.06531122 -1.3085619 -0.16713287 0.022580814
0.16278954 2.132313 0.9461883 0.6281314 0.08199802 -1.9008914 -0.13673523 -0.16006672
0.066121645 -0.79097146 -0.05998766 -0.57118267 0.08372538 -2.6612728 -0.17441194 -0.3188358
0.024315985 0.5169342 -0.0698323 -1.4742913 0.07298226 -0.98136485 -0.09128042 -0.22552308
0.08868008 -0.41348934 -0.08231477 -0.49379113 0.064998016 -3.028786 -0.17626828 0.20912437
0.019942595 -0.80609816 -0.016296169 -1.1982578 0.043474216 -0.5342825 -0.07447769 0.2984559
0.092199326 -2.0237124 -0.060276978 -0.8988825 0.05188304 -1.3504517 -0.16835418 -0.59776103
0.062216863 -1.0339146 -0.09820735 -0.17455685 0.087970324 -1.5863532 -0.098109946 -0.1369605
0.086151585 -0.36795294 0.012240298 0.17939568 0.11252867 0.4898611 0.43360984 1.7315121
0.07314589 -0.9832643 -0.08551076 -0.85361 0.1331081 1.2568212 0.7437796 0.9329062
0.05951604 -0.7711452 0.19103597 -0.44218135 0.0633614 -0.50873405 -0.07083142 0.011558844
0.08823714 -1.3685764 -0.115321666 -0.081772216 0.07339272 -0.0020187392 -0.24769497 0.44120592
0.074208885 -1.1962209 -0.10278451 -0.34472743 0.08002437 0.11308673 -0.08964428 -0.017116679
0.13301346 1.1269531 0.8423808 0.0103174355 0.09350721 -2.0847638 -0.12546092 -0.94839865
-0.063382775 1.289494 -1.345335 -0.944167 0.06601783 -0.72996986 -0.065564014 -0.5446437
0.08816619 -0.82978845 -0.13452204 -0.5571249 0.056545213 -1.5091254 -0.13579243 -0.8680566
0.07758972 -1.4705821 0.03536747 0.30611873 0.07990361 -1.6591649 -0.09238994 0.087835476
0.09008746 -1.6245404 -0.12693654 -0.46168473 0.062310338 1.9325598 -0.07551333 -1.6426839
0.08616293 -1.5626605 -0.16667676 -0.50957566 0.07546877 -1.8832933 -0.1669207 -0.2864756
0.06581532 -1.7759513 -0.21027695 -0.092788115 0.059392117 -1.6799427 -0.03532852 -0.42339417
0.0580316 -3.6524575 -0.1874967 -1.5213231 0.066694684 -1.3695962 -0.17304568 -0.23950471
0.085782185 -1.001542 -0.11095041 -0.5060713 0.0829389 -1.9613539 -0.10998535 -0.5196176
0.058286007 -1.8085498 -0.25988472 -0.412384 0.0905659 -2.8208237 -0.1492876 0.41755217
0.07977115 -0.839339 -0.0747591 0.0011717746 0.08048755 -0.82935435 -0.13758275 -0.17835173
0.08227393 -2.6703188 -0.18653771 0.5236355 0.069837146 -0.84945196 -0.11348563 0.0012827584
0.08068872 -1.5119057 -0.11663743 -0.40468103 0.0810996 -0.8514059 -0.1394159 -0.0653834
00000000: a8e2 383d f153 d23a 5b02 5ebe 41af 0cbe
00000010: c748 a83d f880 8fbf 0691 ea3c e5b8 52bf
00000020: fbc9 dc3c 6f0c 8abf 3f91 ad3d 0107 a7be
00000030: dc52 853d e196 e8bf 5c75 25be a060 b3be
00000040: 8ee8 a43d af2a 15bf cf02 b3bd 6744 263d
00000050: a7f2 9c3d 4770 eebf 0194 0abe 9885 94bd
00000060: c536 613d 0d3a a43e 4f88 353d d813 e2bf
00000070: 1408 ab3d 92dd 5ebf dc68 d7bd f82f 59bf
00000080: 5ef6 7f3d 29e3 45c0 2f06 86be 43a6 0bbf
00000090: e1bb 9d3d c470 dbbf 97b0 66bd ef3c a93c
000000a0: 9888 a43d a4dc 87bf 0667 60be 572c 86be
000000b0: e297 d13d f686 83bf 42d2 1c3f 623d 0440
000000c0: 9ef3 ac3d 52fb 82bf ac0e fabd 541b c53e
000000d0: e4c1 853d f57e a7bf e124 2bbe 66fb b83c
000000e0: 4db2 263e d177 0840 6539 723f 38cd 203f
000000f0: 94ee a73d 6950 f3bf 5204 0cbe 88e8 23be
00000100: c96a 873d 1b7d 4abf 9fb5 75bd 0739 12bf
00000110: 3678 ab3d 4b52 2ac0 0b99 32be 723e a3be
00000120: 5132 c73c cd55 043f 3d04 8fbd 94b5 bcbf
00000130: b977 953d ba3a 7bbf 3bf1 babd 86ef 66be
00000140: e79d b53d e0b4 d3be a594 a8bd 31d2 fcbe
00000150: ae1d 853d a1d7 41c0 ac7f 34be b324 563e
00000160: a75e a33c 735c 4ebf 8b7f 85bc 8360 99bf
00000170: 0512 323d bdc6 08bf c287 98bd 36cf 983e
00000180: 00d3 bc3d 8184 01c0 fee4 76bd 2a1d 66bf
00000190: 5083 543d 9adb acbf 0a65 2cbe de06 19bf
000001a0: 1cd7 7e3d 5057 84bf ef20 c9bd 08bf 32be
000001b0: c929 b43d 9f0d cbbf deed c8bd 603f 0cbe
000001c0: 3e70 b03d 5464 bcbe 888b 483c 80b3 373e
000001d0: 6e75 e63d 13cf fa3e 1c02 de3e 30a2 dd3f
000001e0: 83cd 953d 36b7 7bbf 4420 afbd 2f86 5abf
000001f0: 7d4d 083e 84df a03f 5768 3e3f f1d2 6e3f
00000200: 17c7 733d c669 45bf ef9e 433e 9865 e2be
00000210: 9fc3 813d 653c 02bf 1010 91bd 4e61 3d3c
00000220: acb5 b43d 832d afbf c42d ecbd 3178 a7bd
00000230: ec4e 963d d34c 04bb c0a3 7dbe bee5 e13e
00000240: d4fa 973d c41d 99bf af80 d2bd 1d80 b0be
00000250: d1e3 a33d 049a e73d 6c97 b7bd 4738 8cbc
00000260: ae34 083e 0040 903f 45a6 573f 760a 293c
00000270: b580 bf3d c56c 05c0 d478 00be 41ca 72bf
00000280: d4ce 81bd 240e a53f f033 acbf eeb4 71bf
00000290: 5b34 873d 4edf 3abf 6d46 86bd c56d 0bbf
000002a0: 7a90 b43d 046d 54bf 25c0 09be bd9f 0ebf
000002b0: f49b 673d 052b c1bf 2c0d 0bbe f538 5ebf
000002c0: 5ce7 9e3d 093c bcbf 7bdd 103d 98bb 9c3e
000002d0: 81a4 a33d 845f d4bf f036 bdbd 16e3 b33d
000002e0: c67f b83d f1f0 cfbf a7fb 01be f161 ecbe
000002f0: 2039 7f3d 1f5e f73f bca6 9abd 7743 d2bf
00000300: 3176 b03d 4205 c8bf 50ad 2abe 8d73 02bf
00000310: 5f8f 9a3d c10f f1bf 43ed 2abe eeac 92be
00000320: 2fca 863d 5f52 e3bf d752 57be b207 bebd
00000330: 2645 733d 5d08 d7bf a3b4 10bd 1fc7 d8be
00000340: 8bb2 6d3d ddc1 69c0 23ff 3fbe b7ba c2bf
00000350: 3997 883d ee4e afbf e332 31be b940 75be
00000360: 92ae af3d 8732 80bf f839 e3bd e48d 01bf
00000370: dfdb a93d a50d fbbf 0040 e1bd a905 05bf
00000380: 4fbd 6e3d 8f7e e7bf 9c0f 85be ff23 d3be
00000390: 9d7a b93d 6088 34c0 d9de 18be 66c9 d53e
000003a0: 0f5f a33d ecde 56bf 4d1b 99bd 3b96 993a
000003b0: a8d6 a43d 9150 54bf 7ee2 0cbe d6a1 36be
000003c0: 3c7f a83d 81e6 2ac0 be03 3fbe fa0c 063f
000003d0: c706 8f3d af75 59bf 276b e8bd 3b22 a83a
000003e0: 2140 a53d 2086 c1bf 9bdf eebd 5a32 cfbe
000003f0: 8c17 a63d bdf5 59bf 0bc3 0ebe bbe7 85bd

position_embedding.weight f4 [192, 4]
0.35058072 0.21227019 -1.4661413 0.43384415 -1.0544633 0.6819964 0.89562476 -0.5255803
1.2294124 -0.12609544 -1.8910364 1.249884 -0.8862541 -0.7763625 4.7587905 -1.1309209
-0.49230564 -0.9223165 0.6092171 -0.48817864 0.108871 -2.873669 4.477024 0.061588116
2.993783 -1.1569577 3.441929 3.0661378 -0.81348276 -3.056253 2.6646962 -0.6618566
1.3287661 -1.9296598 0.04516684 1.5772945 -0.16562653 -0.8642058 1.7383089 0.024727575
1.7986252 1.9700613 -0.8159569 2.1244237 1.8565719 5.0530033 -2.9354622 2.0590842
0.0993046 -1.8365159 -3.60431 0.29372534 -0.23249164 2.0076618 -3.9918897 -0.12204274
0.5422584 -0.8708267 -2.4183774 0.75884056 -0.6797986 -0.27743837 -4.805216 -0.41823214
0.49790624 0.86640465 -3.9227219 0.75521135 0.7420612 -0.4010319 -4.3270464 0.9061471
-0.24934825 0.078460805 -1.8389126 -0.20279789 -0.55208683 -2.0155718 -4.9726586 -0.27883267
1.0390766 2.9049866 0.4541299 1.1371772 0.41646513 -0.69856125 2.4749286 0.33722717
1.0729094 -0.24996707 2.1110847 1.1826695 -0.6555661 -2.8607264 -2.2680402 -0.4413044
0.26713434 -4.680482 -2.0665534 0.54281163 1.2264245 2.6896904 -2.3844035 1.4140373
0.10947987 1.0626596 0.41629654 0.14559092 -0.27344167 5.960078 -1.3414661 -0.38335568
0.87804735 1.4608229 -1.5703986 1.1898594 1.2731533 2.727051 -0.78543043 1.3994341
0.7663451 0.31738254 1.4839295 0.74606496 0.7420427 -5.134785 0.92848456 0.86291945
-2.662123 -5.820561 4.0248156 -2.9826882 1.5360833 -2.4256208 3.474131 1.5615214
0.62898135 0.07551271 -2.538917 0.85143197 -1.8778734 -4.3021336 -0.28614366 -1.7089313
0.33676463 -2.9207327 -2.1735487 0.4403042 0.12825853 0.041468978 7.574712 -0.024104033
-0.12506369 -2.5953135 -0.6128369 -0.052364063 -1.321056 -3.2672389 -0.5260037 -1.2207674
0.65950924 -1.056039 4.5326567 0.6204943 -1.4630314 7.984008 3.5374017 -1.6678222
1.891838 -0.47082767 2.5110252 1.849304 -0.44470075 -1.6094552 3.9466875 -0.6365918
-1.6302149 -1.461126 4.045796 -1.8760175 -0.94192666 -1.5214018 -2.5042996 -0.9646617
-0.1360873 -3.7034593 -0.44642845 -0.21511206 0.7690328 -3.2396536 2.6762319 0.55182844
-1.3627127 -5.3369627 1.8269056 -1.5776122 -0.91037005 -6.908754 1.9448224 -1.0805686
-0.5157476 0.5740245 -0.29566094 -0.6237403 -0.49633324 0.43590075 -1.322883 -0.5222458
-2.4250894 10.11971 3.3539107 -2.976886 -0.409498 0.8203109 -3.215054 -0.34665886
1.0604448 -4.137436 0.32138446 0.993349 0.28723007 -1.5333406 -1.93312 0.34356567
0.081266604 1.9540256 -2.6944947 0.14223836 0.7236806 3.2817035 -3.8975608 0.7391653
1.8987149 0.6007059 0.09381448 1.9051683 1.4728038 -0.74661785 0.11306841 1.5624135
0.23338825 0.16941434 -0.92131215 0.29546815 2.6973696 -0.23839214 0.50200397 2.7437956
0.8221265 -2.2795959 1.1717863 0.8409466 0.653833 3.0624032 -2.2968218 0.8284356
00000000: 517f b33e 5b5d 593e 85aa bbbf d220 de3e
00000010: a7f8 86bf 5197 2e3f aa47 653f 6e8c 06bf
00000020: 635d 9d3f 2a1f 01be 7b0d f2bf 33fc 9f3f
00000030: 8ce1 62bf b1bf 46bf 0348 9840 04c2 90bf
00000040: 7c0f fcbe ef1c 6cbf a7f5 1b3f 8df2 f9be
00000050: c2f7 de3d 31ea 37c0 c843 8f40 d243 7c3d
00000060: 249a 3f40 3117 94bf 9148 5c40 9a3b 4440
00000070: 6840 50bf a699 43c0 628a 2a40 6f6f 29bf
00000080: 0215 aa3f 18ff f6bf dd00 393d c9e4 c93f
00000090: 009a 29be 973c 5dbf e880 de3f 7c91 ca3c
000000a0: 5a39 e63f f82a fc3f 8de2 50bf 8ff6 0740
000000b0: 26a4 ed3f 34b2 a140 9dde 3bc0 09c8 0340
000000c0: 3660 cb3d f412 ebbf 04ad 66c0 2b63 963e
000000d0: 4a12 6ebe 887d 0040 1f7b 7fc0 8bf1 f9bd
000000e0: 72d1 0a3f 80ee 5ebf b2c6 1ac0 6043 423f
000000f0: 4807 2ebf 670c 8ebe 54c4 99c0 8622 d6be
00000100: 91ed fe3e b2cc 5d3f e00d 7bc0 8855 413f
00000110: b9f7 3d3f 0e54 cdbe 2a77 8ac0 42f9 673f
00000120: 2655 7fbe 0fb0 a03d 7d61 ebbf 40aa 4fbe
00000130: 9055 0dbf 21ff 00c0 0520 9fc0 28c3 8ebe
00000140: 7600 853f 4deb 3940 b783 e83e 068f 913f
00000150: eb3a d53e e9d4 32bf 3b65 1e40 0aa9 ac3e
00000160: 1855 893f 5ef7 7fbe 031c 0740 b761 973f
00000170: 2ed3 27bf 2416 37c0 9227 11c0 a6f2 e1be
00000180: d5c5 883e 82c6 95c0 6942 04c0 b4f5 0a3f
00000190: 7afb 9c3f e323 2c40 119a 18c0 2dff b43f
000001a0: fb36 e03d 3b05 883f d224 d53e c915 153e
000001b0: 8c00 8cbe f5b8 be40 29b5 abbf 3247 c4be
000001c0: b6c7 603f 3ffc ba3f d202 c9bf 504d 983f
000001d0: b0f6 a23f 0188 2e40 f811 49bf a820 b33f
000001e0: 312f 443f f77f a23e 67f1 bd3f 1dfe 3e3f
000001f0: 83f6 3d3f 2950 a4c0 2ab1 6d3f 4ae8 5c3f
00000200: 3960 2ac0 0942 bac0 4acb 8040 5de4 3ec0
00000210: 619e c43f 5f3d 1bc0 2a58 5e40 efdf c73f
00000220: ec04 213f 68a6 9a3d 9e7d 22c0 72f7 593f
00000230: 285e f0bf 14ab 89c0 6c81 92be 43be dabf
00000240: 6a6c ac3e 49ed 3ac0 6c1b 0bc0 8d6f e13e
00000250: 3456 033e 60db 293d 0a64 f240 d275 c5bc
00000260: b210 00be 9e19 26c0 e1e2 1cbf b37b 56bd
00000270: 5d18 a9bf 711a 51c0 2ea8 06bf 1b42 9cbf
00000280: 99d5 283f 492c 87bf 860b 9140 b7d8 1e3f
00000290: 9d44 bbbf fe7c ff40 ca64 6240 337b d5bf
000002a0: bf27 f23f 5310 f1be a3b4 2040 feb5 ec3f
000002b0: d1af e3be a102 cebf 8796 7c40 aef7 22bf
000002c0: e2aa d0bf 2d06 bbbf 2977 8140 5721 f0bf
000002d0: 1b22 71bf 4bbd c2bf 7246 20c0 12f4 76bf
000002e0: 785a 0bbe 7a05 6dc0 4592 e4be 5646 5cbe
000002f0: 55df 443f 7c56 4fc0 6247 2b40 a144 0d3f
00000300: 5f6d aebf 66c8 aac0 0bd8 e93f 32ef c9bf
00000310: 030e 69bf 8314 ddc0 f1ef f83f 1250 8abf
00000320: 0908 04bf 45f3 123f df60 97be 72ad 1fbf
00000330: 641f febe 622e df3e 3b54 a9bf e7b1 05bf
00000340: aa34 1bc0 55ea 2141 79a6 5640 4d85 3ec0
00000350: b9a9 d1be e5ff 513f 72c3 4dc0 457d b1be
00000360: a8bc 873f e065 84c0 818c a43e 1f4c 7e3f
00000370: d20f 933e 8144 c4bf 7a70 f7bf d7e7 af3e
00000380: 1b6f a63d 831d fa3f 9a72 2cc0 efa6 113e
00000390: 2243 393f 6e07 5240 a371 79c0 f039 3d3f
000003a0: 1709 f33f ddc7 193f ce21 c03d 8edc f33f
000003b0: d684 bc3f 5922 3fbf 6990 e73d 2afd c73f
000003c0: 54fd 6e3e f47a 2d3e 1ddb 6bbf 9a47 973e
000003d0: b4a1 2c40 121d 74be 5583 003f 599a 2f40
000003e0: e276 523f e6e4 11c0 18fd 953f 4748 573f
000003f0: 9961 273f 6afe 4340 21ff 12c0 5b14 543f

TransformerBlocks.0.attention.toqueries.weight f4 [12, 4, 6]
-0.06942617 -0.090915054 0.16793098 -0.049979355 0.016089488 -0.015940785 -0.04042741 0.16626711
0.17197411 0.13259172 -0.27737707 -0.14615417 -0.14718553 0.11206383 0.16720629 -0.11920911
-0.18021347 0.046677824 0.33703586 0.29160553 0.061971236 0.5755368 -0.80611074 -0.46433222
-0.14530167 0.11681834 -0.004212897 -0.0312483 -0.10734194 0.09898743 -0.076691344 -0.014235905
0.6761553 -0.08236794 -0.19679973 -0.30233258 -0.039228663 -0.117343165 0.05597099 -0.27155882
0.13921897 0.17736363 -0.07017898 0.23642142 -0.3487173 0.7664965 -0.6589781 0.07824308
0.06863411 0.0075788163 -0.05348946 0.093156174 0.080216825 0.1904979 -0.17671485 0.22741419
-0.046886954 0.52496827 0.017797556 -0.53142786 0.21992701 -0.12254169 0.06442462 -0.075632535
0.15244552 -0.33214542 0.52259064 -0.60322404 -0.22318833 0.5967703 0.046895087 -0.34632683
-0.11228946 0.120479695 -0.31975022 -0.092578016 0.23973693 -0.043732964 0.08701841 0.05663251
-0.11119452 0.10080436 -0.13421704 0.023217209 -0.16321927 0.11872178 -0.22387336 0.039457593
-0.017885188 -0.030895595 0.41902307 -0.4719014 0.3294763 0.5039852 -0.61683196 -0.18716875
0.035865296 -0.43948013 0.029008778 -0.17385389 0.00086787826 0.049760636 0.010054821 0.066526204
-0.27463135 0.11777486 0.21719399 -0.12321999 -0.32749456 0.050099775 -0.0072556003 -0.24999559
0.12609021 0.022448935 0.3526173 -0.31606874 -0.2060995 -0.3094772 0.7485259 -0.2809357
-0.08182885 0.024845602 -0.052687842 -0.054570958 -0.10475504 -0.30414507 0.049967535 -0.061452202
-0.0035257302 0.09526436 0.04309859 -0.118114814 -0.28077075 -0.029303698 0.033892926 -0.08488408
0.055446208 -0.09073815 -0.4573911 0.8786485 -1.188458 0.5862577 0.060918283 0.12436283
-0.02135136 0.14674182 -0.36004615 -0.053690188 0.19014144 0.044576034 -0.006920423 0.06802087
-0.11280088 0.13174692 0.22422756 -0.2872074 0.30143383 -0.08927476 -0.17879623 -0.3179023
0.04683345 -0.036709826 0.31232968 -0.7792184 0.3811524 -0.34224197 0.094793335 0.33666462
0.029765783 -0.2373335 0.016968336 0.09122026 0.00719839 -0.33397663 -0.10916558 0.06836527
0.03131803 -0.0069612986 0.06546905 -0.035436925 0.21254447 0.08805406 -0.07662486 -0.05243789
-0.03793703 -0.26856512 -0.43534514 -0.51457864 0.9649922 0.09030439 -0.46163923 0.35201013
-0.089520924 -0.07573833 -0.10325203 -0.03402022 0.1407228 -0.014953881 -0.18613671 0.0919641
0.10489459 0.114552334 -0.012901 -0.13391572 0.017611623 0.19708131 0.12350545 -0.1669123
-0.2567565 -0.06859731 -0.13833341 -0.91167617 0.009592428 0.8456946 0.21532512 -0.015187097
0.054179855 -0.17384622 0.22303993 0.0034034431 -0.20678721 -0.030539604 0.014253831 0.14351517
0.04021796 0.050369255 -0.07166678 -0.17017671 0.062745064 0.07408047 -0.2921739 -0.104138225
0.1567677 -0.02869707 0.46813658 0.8422093 -0.3648829 -0.39256197 -0.3357234 -0.2108154
-0.1261169 0.25188106 -0.045136876 0.015383201 0.054980487 -0.28446943 0.019415561 0.06251995
-0.15518165 -0.022191765 0.06990965 0.044580355 0.013318851 -0.16141409 0.09702441 0.0028710098
00000000: 4f2f 8ebd ac31 babd 19f6 2b3e 27b7 4cbd
00000010: 1ace 833c 4096 82bc 3697 25bd ed41 2a3e
00000020: fb19 303e 20c6 073e 5e04 8ebe 70a9 15be
00000030: ceb7 16be b981 e53d 2038 2b3e e823 f4bd
00000040: e189 38be 3f31 3f3d f78f ac3e 524d 953e
00000050: 8dd5 7d3d 6156 133f 465d 4ebf f4bc edbe
00000060: f6c9 14be 743e ef3d 570c 8abb 6ffc ffbc
00000070: 17d6 dbbd ecb9 ca3d 5a10 9dbd b73d 69bc
00000080: 8418 2d3f 86b0 a8bd de85 49be 56cb 9abe
00000090: 3cae 20bd 9d51 f0bd d641 653d c209 8bbe
000000a0: 6b8f 0e3e d09e 353e ffb9 8fbd 7518 723e
000000b0: 138b b2be 1d39 443f cab2 28bf e83d a03d
000000c0: 0a90 8c3d b857 f83b c417 5bbd aac8 be3d
000000d0: b848 a43d e211 433e bdf4 34be 44df 683e
000000e0: 890c 40bd 5264 063f 2ecc 913c a80b 08bf
000000f0: 8c34 613e 23f7 fabd 0ef1 833d 3be5 9abd
00000100: ae1a 1c3e f70e aabe 80c8 053f e46c 1abf
00000110: 7b8b 64be f0c5 183f 1015 403d c051 b1be
00000120: 04f8 e5bd 0fbe f63d 4db6 a3be 8b99 bdbd
00000130: 997d 753e 5621 33bd b536 b23d 7ef7 673d
00000140: f4b9 e3bd 8472 ce3d 3170 09be 0432 be3c
00000150: f422 27be 6824 f33d 0f3f 65be 499e 213d
00000160: f583 92bc c218 fdbc 318a d63e 0f9d f1be
00000170: 1eb1 a83e 2d05 013f b3e8 1dbf 2aa9 3fbe
00000180: 7de7 123d 8a03 e1be d1a3 ed3c c106 32be
00000190: 5382 633a cfd1 4b3d fabc 243c e43e 883d
000001a0: 7b9c 8cbe f233 f13d 1a68 5e3e c35a fcbd
000001b0: 5ead a7be 6c35 4d3d 63c0 edbb d8fe 7fbe
000001c0: cb1d 013e d4e6 b73c 418a b43e c3d3 a1be
000001d0: bf0b 53be cc73 9ebe 659f 3f3f ced6 8fbe
000001e0: e295 a7bd 0189 cb3c 35cf 57bd cc85 5fbd
000001f0: cf89 d6bd e7b8 9bbe c2aa 4c3d 4eb5 7bbd
00000200: f00f 67bb f619 c33d 2688 303d 2ee6 f1bd
00000210: 2fc1 8fbe 4f0e f0bc 4fd3 0a3d b4d7 adbd
00000220: 901b 633d ecd4 b9bd 2b2f eabe 1cef 603f
00000230: 641f 98bf fc14 163f 7385 793d f0b1 fe3d
00000240: 0ce9 aebc 7d43 163e f857 b8be 3eea 5bbd
00000250: 70b4 423e 5c95 363d b7c4 e2bb 874e 8b3d
00000260: 2604 e7bd aae8 063e e99b 653e d90c 93be
00000270: 8955 9a3e afd5 b6bd 5c16 37be 17c4 a2be
00000280: 6fd4 3f3d 0b5d 16bd ade9 9f3e db7a 47bf
00000290: 6826 c33e 573a afbe 0223 c23d 4e5f ac3e
000002a0: 5fd7 f33c 8e07 73be 2e01 8b3c b0d1 ba3d
000002b0: 79e0 eb3b fcfe aabe 3492 dfbd 1703 8c3d
000002c0: 5647 003d 9b1b e4bb a314 863d 4f26 11bd
000002d0: 42a5 593e b055 b43d 7fed 9cbd 1dc9 56bd
000002e0: dc63 1bbd 5e81 89be 8fe5 debe 6dbb 03bf
000002f0: bb09 773f 82f1 b83d fa5b ecbe ac3a b43e
00000300: bf56 b7bd b31c 9bbd cd75 d3bd c958 0bbd
00000310: a319 103e 1f01 75bc 9f9a 3ebe ad57 bc3d
00000320: fad2 d63d 6a9a ea3d b75e 53bc 3421 09be
00000330: 4046 903c afcf 493e 6df0 fc3d 0feb 2abe
00000340: 9775 83be bf7c 8cbd 46a7 0dbe 9c63 69bf
00000350: 8f29 1d3c 717f 583f 307e 5c3e 4dd3 78bc
00000360: b2eb 5d3d be04 32be 9464 643e 4d0c 5f3b
00000370: 07c0 53be 312e fabc e688 693c a4f5 123e
00000380: 96bb 243d fe4f 4e3d 08c6 92bd ce42 2ebe
00000390: 7c80 803d 80b7 973d d197 95be 6c46 d5bd
000003a0: b687 203e 1e16 ebbc 99af ef3e 079b 573f
000003b0: eed1 babe e2fd c8be f0e3 abbe fedf 57be
000003c0: ca24 01be 8ef6 803e 72e1 38bd d209 7c3c
000003d0: 3833 613d faa5 91be 620d 9f3c 760a 803d
000003e0: f0e7 1ebe 81cb b5bc ca2c 8f3d e499 363d
000003f0: 4f37 5a3c bc49 25be bcb4 c63d 8d27 3c3b

TransformerBlocks.0.attention.toqueries.bias f4 [12]
-0.5971723 -0.08383197 -0.75655025 -0.14054106 0.45887715 0.3393064 -0.5829051 -0.30980867
0.15778203 0.7467529 0.9217909 2.2110503
00000000: 49e0 18bf 19b0 abbd 47ad 41bf ffe9 0fbe
00000010: f2f1 ea3e 92b9 ad3e 4539 15bf 3e9f 9ebe
00000020: 9d91 213e 332b 3f3f 7dfa 6b3f d981 0d40

TransformerBlocks.0.attention.tokeys.weight f4 [12, 4, 6]
0.013594451 -0.043173615 -0.044545088 -0.053439178 0.04833473 -0.24094498 0.22292948 -0.38356012
0.24472637 -0.022998357 0.44169757 -0.48618636 -0.26005012 -0.15248118 0.30332354 -0.21977781
0.26257348 -0.019191768 -0.107715525 0.40410542 0.34548956 -1.1451396 0.359753 0.023393083
-0.05958689 -0.04962212 -0.03983577 0.2112923 -0.27404493 -0.034599878 0.32220227 -0.30589676
0.034944206 0.14836203 -0.28041857 0.091010965 0.18766236 0.7020592 -0.023719765 -0.22999269
0.05986285 -0.60222244 -0.06717421 0.5285776 -0.30820101 0.37176937 0.1156413 -0.76395935
0.012880289 0.05486133 -0.0025265277 -0.34357676 0.02167241 0.048157033 -0.21165933 -0.09956957
0.3687756 0.22760248 -0.30276027 0.0211058 -0.015373909 0.66142565 -0.25938812 -0.5410979
-0.04500476 0.34301007 0.38631082 0.12511428 -0.5038169 0.41239077 -1.2879813 0.7457563
-0.07901366 0.014064874 -0.08675883 0.19069338 0.12658858 0.17986542 -0.060727865 0.28925064
-0.16761988 0.10546816 0.024875367 -0.105602704 -0.66811836 -0.1617121 0.35822803 0.45289102
-0.010433014 0.10069132 -0.3963775 -0.013452635 -0.26232925 1.0334269 -0.35220945 -0.0018889951
-0.22575146 0.094809994 -0.0842212 -0.09802892 0.10900545 -0.0261488 -0.102892056 0.074385926
-0.108533554 0.062728405 -0.068990454 0.23714072 0.038714115 0.3217246 -0.3991818 -0.13420735
-0.08208357 0.25876167 -0.17154926 0.40050152 -0.42215726 0.13447766 -0.025240147 0.0827795
-0.028361108 -0.10967214 -0.31452122 0.4915625 -0.14001375 -0.073149 -0.0056151296 0.066200145
0.37517476 -0.14353599 -0.2702376 0.08575618 0.38188863 0.20838156 -0.1324715 -0.3454168
0.026348079 0.023970697 0.23271042 0.1521561 -0.11850032 -0.3129819 0.17991418 -0.13198209
-0.34100977 -0.10471057 -0.19053932 0.011892341 -0.0064698895 0.15449819 -0.29073864 -0.13226266
0.21353391 0.2653981 -0.107958294 0.07287051 0.38132504 -0.0036880726 0.33654508 -0.3940827
-0.02155418 -0.17097494 -0.46765754 0.514885 0.047828823 -0.17165168 0.25995716 -0.29507464
0.20865606 0.15029837 0.21947743 0.12276797 0.048901763 0.07694184 0.043206804 -0.005777566
0.06369947 -0.2937267 0.37647057 -0.13955684 -0.15321742 0.10627068 0.09504339 -0.2846014
0.14158356 -0.17921612 0.30380845 -0.7402588 0.5837288 -0.89672416 0.59778184 0.04141034
0.08307804 -0.03843694 0.06599057 -0.38024053 0.7042539 -0.07948434 0.08112548 -0.04706394
0.12993218 0.06952976 -0.0556325 -0.15923414 -0.050603192 0.32856977 0.030573422 0.16354434
-0.34878987 0.053914532 -0.010284881 -0.34555537 0.94328547 0.125257 -0.59628814 -0.23365779
0.072244234 0.04754348 -0.03222581 -0.096046686 -0.076631516 -0.18508694 -0.33894765 0.1404905
0.20516342 0.16200666 -0.019429462 -0.17686264 -0.2057612 0.42561162 0.22246335 0.074563846
-0.27645683 -0.33318043 -0.3075938 0.12130304 0.62330425 0.15231845 -0.8424777 -0.59295803
0.04884253 -0.06659211 0.022565825 0.12146367 -0.11218729 0.031069659 0.55067736 -0.32931468
-0.14262818 -0.10597269 -0.44060266 0.44805646 -0.009313533 -0.27844167 0.23005885 -0.15391834
00000000: 43bb 5e3c d1d6 30bd e974 36bd 0ae3 5abd
00000010: a3fa 453d 48ba 76be a047 643e fe61 c4be
00000020: 8d99 7a3e 0d67 bcbc 2f26 e23e 6bed f8be
00000030: 4a25 85be 0724 1cbe 394d 9b3e 6f0d 61be
00000040: 0870 863e 0e38 9dbc f599 dcbd e8e6 ce3e
00000050: 02e4 b03e ef93 92bf 8c31 b83e daa2 bf3c
00000060: 6211 74bd 9040 4bbd d52a 23bd 025d 583e
00000070: 9e4f 8cbe 9ab8 0dbd b2f7 a43e 809e 9cbe
00000080: a821 0f3d 37ec 173e 0693 8fbe f563 ba3d
00000090: 902a 403e 27ba 333f f44f c2bc 3483 6bbe
000000a0: bf32 753d 402b 1abf a292 89bd dd50 073f
000000b0: 86cc 9dbe 8e58 be3e 59d5 ec3d d792 43bf
000000c0: d907 533c 46b6 603d 1a94 25bb 4be9 afbe
000000d0: 578a b13c 4f40 453d 39bd 58be 21eb cbbd
000000e0: 28d0 bc3e a010 693e 6503 9bbe 12e6 ac3c
000000f0: d9e2 7bbc 3153 293f 85ce 84be 6485 0abf
00000100: e956 38bd 049f af3e 88ca c53e f51d 003e
00000110: 25fa 00bf e224 d33e 92dc a4bf e3e9 3e3f
00000120: ead1 a1bd 5b70 663c 9dae b1bd 2045 433e
00000130: 70a0 013e a42e 383e c8bd 78bd a918 943e
00000140: 8ca4 2bbe b1ff d73d 6dc7 cb3c 3b46 d8bd
00000150: ce09 2bbf db97 25be aa69 b73e 55e1 e73e
00000160: 3bef 2abc 4037 ce3d fef1 cabe 7168 5cbc
00000170: 0550 86be 5547 843f cc54 b4be 2898 f7ba
00000180: 642b 67be be2b c23d 2a7c acbd 63c3 c8bd
00000190: 403e df3d 0236 d6bc 12b9 d2bd a657 983d
000001a0: d746 debd c077 803d de4a 8dbd 04d5 723e
000001b0: b192 1e3d 16b9 a43e 8f61 ccbe a76d 09be
000001c0: 6e1b a8bd 697c 843e 9caa 2fbe 890e cd3e
000001d0: ff24 d8be 83b4 093e 6dc4 cebc 4c88 a93d
000001e0: 8e55 e8bc c99b e0bd ed08 a1be 14ae fb3e
000001f0: c45f 0fbe 25cf 95bd 1fff b7bb f193 873d
00000200: e816 c03e 19fb 12be 955c 8abe f0a0 af3d
00000210: e886 c33e fa61 553e 9ca6 07be 79da b0be
00000220: edd7 d73c 325e c43c a44b 6e3e cfce 1b3e
00000230: 4cb0 f2bd 2a3f a0be 6c3b 383e 5026 07be
00000240: d598 aebe 7f72 d6bd bd1c 43be 18d8 423c
00000250: 5e01 d4bb c634 1e3e b2db 94be dd6f 07be
00000260: a2a8 5a3e 42e2 873e 3d19 ddbd 223d 953d
00000270: 093d c33e 97b3 71bb a34f ac3e 35c5 c9be
00000280: 6492 b0bc 0e14 2fbe cf70 efbe 81cf 033f
00000290: 28e8 433d 75c5 2fbe 1b19 853e 0614 97be
000002a0: efa9 553e d1e7 193e b1be 603e c66d fb3d
000002b0: 374d 483d af93 9d3d 9ef9 303d bd51 bdbb
000002c0: de74 823d 5963 96be c0c0 c03e fde7 0ebe
000002d0: 07e5 1cbe 71a4 d93d 1ca6 c23d 46b7 91be
000002e0: 48fb 103e 6e84 37be c88c 9b3e 9a81 3dbf
000002f0: 406f 153f b78f 65bf 3b08 193f e49d 293d
00000300: d224 aa3d 0e70 1dbd 1026 873d e3ae c2be
00000310: fc49 343f b0c8 a2bd 1e25 a63d 1ec6 40bd
00000320: f10c 053e 9e65 8e3d e8de 63bd 460e 23be
00000330: 4b45 4fbd 4c3a a83e 1d75 fa3c 2b78 273e
00000340: 9694 b2be 7cd5 5c3d eb81 28bc a2ec b0be
00000350: 287b 713f 5f43 003e 57a6 18bf fd43 6fbe
00000360: c9f4 933d f4bc 423d 36ff 03bd 20b4 c4bd
00000370: fcf0 9cbd 6e87 3dbe 8c8a adbe bedc 0f3e
00000380: 5c16 523e 13e5 253e 892a 9fbc 7b1b 35be
00000390: 10b3 52be c4e9 d93e 6fcd 633e eeb4 983d
000003a0: c08b 8dbe a096 aabe ef7c 9dbe ba6d f83d
000003b0: de90 1f3f 5ef9 1b3e 9eac 57bf 19cc 17bf
000003c0: 1b0f 483d 7261 88bd f7db b83c f2c1 f83d
000003d0: 73c2 e5bd cc85 fe3c 31f9 0c3f ef9b a8be
000003e0: 1f0d 12be 3608 d9bd ac96 e1be a867 e53e
000003f0: ca97 18bc e88f 8ebe 8c94 6b3e c59c 1dbe

TransformerBlocks.0.attention.tokeys.bias f4 [12]
0.024265124 -0.16233742 0.21136399 -0.5245067 0.4415097 0.35721454 0.6154539 -0.6711521
0.49815843 0.5006573 -0.68181324 -0.19673482
00000000: a7c7 c63c c83b 26be cd6f 583e 1246 06bf
00000010: 8f0d e23e d3e4 b63e 638e 1d3f a0d0 2bbf
00000020: 9f0e ff3e 142b 003f 508b 2ebf da74 49be

TransformerBlocks.0.attention.tovalues.weight f4 [12, 4, 1]
-0.08928167 0.071852334 -0.36694813 -1.0603142 0.21522632 0.08212692 0.069924414 -1.0579762
-0.11081211 0.067130655 -0.13391888 -1.0523582 0.26990855 -0.13553464 0.6912757 -0.5330223
-0.07968885 -0.14560813 0.12954445 -0.5295075 0.023842363 -0.13201578 0.33322844 -0.5533394
-0.008214801 0.12427647 0.35470697 -0.031401556 -0.2645204 0.10800058 0.6452384 -0.033480097
0.21765332 0.14059047 -0.2677808 -0.004700543 0.73019093 0.10083254 -0.21365152 0.417537
0.8985156 0.14282054 0.7471039 0.45346949 -0.47159487 0.074253686 -0.15625024 0.4134616
00000000: 4fd9 b6bd 5127 933d a0e0 bbbe 60b8 87bf
00000010: 4a64 5c3e 2932 a83d 8834 8f3d c46b 87bf
00000020: 76f1 e2bd cc7b 893d 0822 09be acb3 86bf
00000030: 7431 8a3e 98c9 0abe 72f7 303f 2674 08bf
00000040: e833 a3bd 4c1a 15be 4da7 043e ce8d 07bf
00000050: 0f51 c33c 252f 07be eb9c aa3e a7a7 0dbf
00000060: 5f97 06bc a984 fe3d 279c b53e eb9e 00bd
00000070: 386f 87be 682f dd3d 582e 253f 6d22 09bd
00000080: 83e0 5e3e f3f6 0f3e 911a 89be 0307 9abb
00000090: cbed 3a3f 4a81 ce3d 77c7 5abe 69c7 d53e
000000a0: 1e05 663f 8c3f 123e 3442 3f3f 272d e83e
000000b0: e274 f1be 5112 983d 1000 20be 3db1 d33e

TransformerBlocks.0.attention.unifyheads.weight f4 [4, 12]
0.23542033 -0.08519909 -0.035028864 0.09501969 -0.45671508 -0.24631213 0.28585956 0.40586895
0.35718623 0.10113771 0.31973997 0.027764438 -0.71282655 0.17467897 1.1594297 -0.6884182
-0.83486974 1.6852356 -0.78506356 -2.5533047 -1.414148 -0.55549014 0.21262406 -1.9733628
0.26161548 -0.6966225 -0.68815804 0.12865764 1.9187081 0.0525473 -0.16471936 -0.3568107
-1.3699094 -0.9313966 -0.27187163 0.6167736 0.23917255 -0.06349418 -0.020283526 0.100619845
0.046681214 0.031125268 0.32783484 0.37070802 0.5644101 0.22141534 0.3253891 0.009106762
00000000: 0712 713e dc7c aebd 6d7a 0fbd af99 c23d
00000010: 8fd6 e9be 3f39 7cbe 2f5c 923e 0ece cf3e
00000020: 1de1 b63e 4a21 cf3d f5b4 a33e 3f72 e33c
00000030: cd7b 36bf 0bdf 323e 3168 943f 2d3c 30bf
00000040: 06ba 55bf cdb5 d73f edf9 48bf 5869 23c0
00000050: cd02 b5bf 9a34 0ebf 1fba 593e 2797 fcbf
00000060: 77f2 853e da55 32bf 202b 30bf d4be 033e
00000070: 3a98 f53f d63b 573d 31ac 28be e4af b6be
00000080: 3159 afbf 0270 6ebf c232 8bbe e0e4 1d3f
00000090: a6e9 743e 3d09 82bd a329 a6bc c711 ce3d
000000a0: cd34 3f3d 6bfa fe3c f8d9 a73e 71cd bd3e
000000b0: 2e7d 103f b4ba 623e 6699 a63e 8734 153c

TransformerBlocks.0.attention.unifyheads.bias f4 [4]
-0.07336822 -6.5649033 -0.7966908 1.1118761
00000000: 1442 96bd b013 d2c0 eef3 4bbf f551 8e3f

TransformerBlocks.0.norm1.weight f4 [4]
1.3364449 0.36025077 0.99640983 1.183026
00000000: a010 ab3f ca72 b83e b714 7f3f 656d 973f

TransformerBlocks.0.norm1.bias f4 [4]
-0.020561617 0.4560805 -0.06492534 -0.040504698
00000000: d670 a8bc 6283 e93e 94f7 84bd 41e8 25bd

TransformerBlocks.0.norm2.weight f4 [4]
1.3223225 1.0966892 0.94688976 1.2807482
00000000: dd41 a93f 5060 8c3f 5e67 723f 8fef a33f

TransformerBlocks.0.norm2.bias f4 [4]
-0.071421504 -0.13270028 -0.0037891876 -0.65725565
00000000: 7045 92bd 95e2 07be 0554 78bb e841 28bf

TransformerBlocks.0.feedforward.0.weight f4 [16, 4]
-0.52102774 -0.45371833 0.08272 0.5985293 -0.3548737 0.44364983 0.0054653804 0.16246057
0.14493549 0.336082 -0.4548355 0.26161972 -0.26914352 -0.39204705 0.022448774 0.45125896
-0.08740423 -0.25836366 -0.14537576 0.55659515 -0.43823174 -0.13688207 -0.23549736 0.11648034
0.5920071 0.64637786 0.38177845 -1.2071406 -0.2095986 1.1589553 -0.18787141 -0.28621548
-0.02957474 -0.28364003 0.026247991 0.032222316 0.27249023 0.4217977 -0.16383193 -0.64783233
-0.8095552 0.19504529 0.42733502 0.30510783 -0.07310909 -0.15873794 0.5508816 -0.101268895
-0.09714462 0.4686945 -0.3578786 -0.11450974 -1.0525204 -0.24648014 0.16350949 0.95384085
-0.0031880597 0.31052074 -0.07757423 -0.7681789 -0.20015137 -0.025907252 0.06724067 0.44749522
00000000: 1362 05bf c54d e8be 1a69 a93d 3739 193f
00000010: 01b2 b5be 1226 e33e ef16 b33b 105c 263e
00000020: f869 143e f112 ac3e 33e0 e8be 05f3 853e
00000030: 2ecd 89be 64ba c8be 7ee6 b73c 6a0b e73e
00000040: fd00 b3bd 3e48 84be 62dd 14be 057d 0e3f
00000050: e95f e0be d02a 0cbe 3826 71be 3f8d ee3d
00000060: c78d 173f 0579 253f 7778 c33e 9583 9abf
00000070: 04a1 56be a658 943f 5d61 40be d68a 92be
00000080: ba46 f2bc 4439 91be 0706 d73c 8cfb 033d
00000090: d783 8b3e def5 d73e 8fc3 27be 57d8 25bf
000000a0: 023f 4fbf f4b9 473e a8cb da3e 1837 9c3e
000000b0: 38ba 95bd 338c 22be 9406 0d3f 1166 cfbd
000000c0: c2f3 c6bd baf8 ef3e dd3b b7be 1584 eabd
000000d0: fdb8 86bf 4a65 7cbe 086f 273e ea2e 743f
000000e0: c4ee 50bb 93fc 9e3e 3ddf 9ebd 5fa7 44bf
000000f0: 7bf4 4cbe 723b d4bc 7ab5 893d 181e e53e

TransformerBlocks.0.feedforward.0.bias f4 [16]
0.2918273 0.044709053 -0.091585845 -0.08377541 -0.042114627 0.33180562 -0.13027233 0.549261
-0.5095381 0.096013844 0.02608155 0.03370292 0.42663962 -0.17599456 0.44096586 0.19722176
00000000: 636a 953e d720 373d 5c91 bbbd 7192 abbd
00000010: 6380 2cbd 6de2 a93e 1c66 05be 5e9c 0c3f
00000020: 1771 02bf e8a2 c43d faa8 d53c 130c 0a3d
00000030: 8270 da3e eb37 34be 47c6 e13e 80f4 493e

TransformerBlocks.0.feedforward.2.weight f4 [4, 16]
-0.41395143 -0.101413764 0.022319155 -0.06268866 -0.18259172 -0.0664844 -0.0011408755 0.16175644
-0.19291122 0.26631057 0.10772489 0.024634521 0.09676027 0.26608405 0.12668806 -0.21394777
0.2919904 0.25751802 0.07961801 0.3775006 0.33982015 0.20655593 -0.77330446 -0.48516613
0.20272626 0.019545479 0.019685183 -0.24845426 -0.046313237 -0.103532426 -0.42080566 0.09324431
-0.02974008 -0.2167772 0.52135664 -0.27535263 -0.4312994 0.14643265 0.38394332 0.015634036
-0.21415922 0.07435856 -0.15529968 0.06909512 0.13305742 -0.31397042 -0.05052054 0.01963763
-0.17723028 -0.115277484 -0.10527008 0.12469997 0.120311074 -0.31399593 0.33756167 0.64026344
-0.24988735 0.039192636 0.35677204 0.21684752 -0.12508324 -0.16446179 0.14305401 0.03982191
00000000: 71f1 d3be 05b2 cfbd a9d6 b63c ea62 80bd
00000010: 53f9 3abe f928 88bd 6e89 95ba 7ba3 253e
00000020: 858a 45be dc59 883e de9e dc3d 56ce c93c
00000030: 402a c63d 2b3c 883e 84ba 013e 2015 5bbe
00000040: c47f 953e 67d9 833e c40e a33d c247 c13e
00000050: e8fc ad3e 6683 533e 48f7 45bf b267 f8be
00000060: 7997 4f3e d71d a03c d242 a13c cb6a 7ebe
00000070: f3b2 3dbd cf08 d4bd d773 d7be dff6 be3d
00000080: 78a1 f3bc d8fa 5dbe a177 053f 05fb 8cbe
00000090: 46d3 dcbe 71f2 153e 3894 c43e f312 803c
000000a0: 8e4c 5bbe 4d49 983d e106 1fbe be81 8d3d
000000b0: 3440 083e bbc0 a0be a0ee 4ebd 18df a03c
000000c0: db7b 35be 9a16 ecbd d797 d7bd b362 ff3d
000000d0: a765 f63d 13c4 a0be e2d4 ac3e 4ee8 233f
000000e0: 78e2 7fbe 7588 203d d3aa b63e 470d 5e3e
000000f0: d215 00be ac68 28be c07c 123e 4d1c 233d

TransformerBlocks.0.feedforward.2.bias f4 [4]
-0.11101895 -0.019501634 0.08616979 -0.051960565
00000000: e75d e3bd e4c1 9fbc c979 b03d 9ad4 54bd

TransformerBlocks.1.attention.toqueries.weight f4 [12, 4, 6]
-0.28329474 0.04372387 0.31763014 0.09983051 -0.04440504 0.08783538 0.56831956 0.1875899
0.404217 -0.07745679 -0.49367064 -0.1354952 -0.90086114 -0.8779308 -0.5574356 -0.19592744
0.0037088455 0.22190405 -0.42326307 0.0025613182 -0.27205244 0.023829756 0.5497119 0.52872324
0.37849137 0.56789184 -0.24987602 -0.054521944 -0.19017582 -0.33576864 -0.037414405 0.15435278
0.49127057 -0.03387852 -0.114570715 -0.018576305 -0.34586444 -0.46973962 -0.784832 0.03321951
-0.53294843 0.09143428 0.07278922 -0.05422843 0.39813226 -0.23002972 -0.24256493 -0.07351415
-0.014072996 0.41400984 -0.01572029 -0.06611941 0.26456568 -0.40382168 -0.20342728 0.26573107
0.51699644 0.3920798 -0.11864786 -0.41411465 -0.90509355 -0.19446406 -0.9813133 -0.58424175
-0.1675347 0.20828906 0.4148565 -0.14036964 -0.08965217 -0.18502404 -0.03252671 0.23389827
0.08328221 -0.19579916 -0.2573395 0.08775007 -0.18568948 -0.29679865 0.15107553 -0.40911543
-0.08944295 0.058617238 0.3760278 0.028968517 0.28931597 -0.07515614 0.21199033 -0.026359867
0.01841764 0.06952752 -0.3860826 1.0872779 0.40029287 0.44009042 0.32573706 0.23351681
-0.38610297 -0.4535218 0.1273064 -0.3036555 -0.034393635 -0.04184127 0.5138206 -0.13399398
-0.40481508 -0.010336043 0.0600489 -0.20998268 -0.09757842 -0.5298888 -0.17896421 -0.015666118
-0.05819406 -0.03296503 -0.047575768 0.17423728 0.31841433 0.8040884 -0.023169307 0.9991755
0.018351417 0.22453848 -0.181622 -0.050203715 -0.36482495 -0.16012241 -0.25042433 0.118419096
-0.3557072 -0.37785852 0.6108151 -0.1459831 0.43325505 0.14476715 -0.21221675 0.39635998
-0.47792944 -0.11062959 0.35293376 0.31313574 0.7055722 0.11822377 -0.42204204 0.84914696
0.5841816 -0.7710221 -0.607689 -0.40846813 -0.09466207 -0.08739819 0.15227528 0.2987044
0.042403065 0.04259975 0.31231058 -0.15154955 0.08973427 0.0050331103 0.28799897 0.60029995
0.26612175 0.14790127 -0.1436511 0.63819927 0.45826235 -0.04670741 -0.17640565 -0.25934643
-0.27274427 -0.117544025 0.8622421 -0.30845797 -0.29043207 -1.0090233 0.80862784 -0.0411862
-0.7376771 -0.47048086 0.7462891 0.11840618 -0.2152889 0.27101982 0.8120584 0.43143463
0.28245443 0.4701766 -0.25709152 0.4715135 0.2025351 0.3377612 -0.73486584 0.61571485
-0.1271706 -0.875952 -0.054713838 -0.046251226 -0.3070993 -0.33033022 0.41637993 0.19493073
-0.24064215 0.023317644 -0.007089804 0.2712865 0.21208534 0.20994894 0.17980403 -0.022628777
-0.36313808 -0.019505309 -0.5970125 0.5231087 -0.19480453 -0.28735885 0.107271135 -0.2917062
-0.97729266 0.40971974 -0.14934635 0.16190192 0.5244472 0.3633846 0.74396944 -0.1057431
-0.29555959 0.7114205 -0.032792576 -0.15357326 0.12484148 0.32593533 0.6411242 -0.49273384
-0.17141625 -0.6255976 -0.6528709 -0.08491975 -0.1277361 -0.11528628 0.028734826 0.5905852
-0.07565692 -0.19415133 -0.6164704 0.103437394 0.18785945 1.1952406 0.23729844 -0.12280498
0.8251345 -0.049684614 0.2524668 -0.09987185 -0.043227978 0.07381255 -0.22887197 -0.2612228
00000000: 020c 91be cd17 333d 6ba0 a23e f073 cc3d
00000010: 0fe2 35bd 09e3 b33d 647d 113f 9117 403e
00000020: 88f5 ce3e aaa1 9ebd 66c2 fcbe 41bf 0abe
00000030: d69e 66bf 13c0 60bf 19b4 0ebf 34a1 48be
00000040: 1a10 733b d13a 633e f0b5 d8be cadb 273b
00000050: 754a 8bbe 9f36 c33c ebb9 0c3f 685a 073f
00000060: 9fc9 c13e 5c61 113f 80df 7fbe 6752 5fbd
00000070: 73bd 42be dee9 abbe d93f 19bd a80e 1e3e
00000080: d187 fb3e 34c4 0abd 0da4 eabd 562d 98bc
00000090: 2515 b1be b681 f0be c0ea 48bf 2e11 083d
000000a0: 4f6f 08bf e541 bb3d 8412 953d a11e 5ebd
000000b0: fed7 cb3e e98c 6bbe f162 78be 968e 96bd
000000c0: 6c92 66bc 19f9 d33e d6c7 80bc 9d69 87bd
000000d0: 2775 873e b7c1 cebe 3e4f 50be e70d 883e
000000e0: e159 043f afbe c83e a6fd f2bd d606 d4be
000000f0: 36b4 67bf 9621 47be 5937 7bbf de90 15bf
00000100: 378e 2bbe ba49 553e 1268 d43e 0fbd 0fbe
00000110: 8f9b b7bd f176 3dbe ba3a 05bd 0783 6f3e
00000120: dd8f aa3d 937f 48be 01c2 83be 4fb6 b33d
00000130: 6225 3ebe fef5 97be 8bb3 1a3e 9477 d1be
00000140: de2d b7bd a118 703d b786 c03e 624f ed3c
00000150: 3921 943e 76eb 99bd fe13 593e a6f0 d7bc
00000160: 97e0 963c 7264 8e3d 9eac c5be ec2b 8b3f
00000170: 30f3 cc3e 8853 e13e 02c7 a63e 081f 6f3e
00000180: 4aaf c5be 0234 e8be 9c5c 023e bc78 9bbe
00000190: 57e0 0cbd c061 2bbd bf89 033f b835 09be
000001a0: ec43 cfbe 8258 29bc d6f5 753d b305 57be
000001b0: 32d7 c7bd cba6 07bf 6542 37be 3b56 80bc
000001c0: e55c 6ebd 5706 07bd cfde 42bd 426b 323e
000001d0: 3407 a33e bdd8 4d3f 8fcd bdbc f7c9 7f3f
000001e0: b655 963c 6aed 653e 1efb 39be 69a2 4dbd
000001f0: 56ca babe 21f7 23be 9e37 80be b685 f23d
00000200: 411f b6be ac76 c1be 615e 1c3f 987c 15be
00000210: 9bd3 dd3e d73d 143e 594f 59be b2ef ca3e
00000220: 2bb3 f4be c491 e2bd bcb3 b43e 5453 a03e
00000230: 61a0 343f 4e1f f23d e515 d8be b261 593f
00000240: ed8c 153f b461 45bf 8291 1bbf bc22 d1be
00000250: 30de c1bd d2fd b2bd 0dee 1b3e c8ef 983e
00000260: d6ae 2d3d 137d 2e3d 2ce7 9f3e ce2f 1bbe
00000270: 9ac6 b73d caec a43b 9a74 933e 42ad 193f
00000280: 1c41 883e 6e73 173e 4619 13be 0761 233f
00000290: 5da1 ea3e 4550 3fbd afa3 34be 0ec9 84be
000002a0: 23a5 8bbe ecba f0bd e6bb 5c3f 34ee 9dbe
000002b0: 83b3 94be ad27 81bf 3c02 4f3f dcb2 28bd
000002c0: 68d8 3cbf dee2 f0be cd0c 3f3f f07e f23d
000002d0: b274 5cbe 1cc3 8a3e 0fe3 4f3f 00e5 dc3e
000002e0: de9d 903e fdba f03e 80a1 83be 386a f13e
000002f0: 5c65 4f3e 09ef ac3e 2b20 3cbf 7d9f 1d3f
00000300: 0339 02be 643e 60bf 9e1b 60bd ed71 3dbd
00000310: 1f3c 9dbe 0b21 a9be c02f d53e ec9b 473e
00000320: e56a 76be a504 bf3c 9651 e8bb 10e6 8a3e
00000330: e62c 593e dbfc 563e 8c1e 383e fc5f b9bc
00000340: 3ced b9be 99c9 9fbc d0d5 18bf 74ea 053f
00000350: d77a 47be b320 93be f8b0 db3d 845a 95be
00000360: da2f 7abf c9c6 d13e 40ee 18be 9ec9 253e
00000370: 2c42 063f 8c0d ba3e c874 3e3f d78f d8bd
00000380: 9653 97be a71f 363f 8251 06bd 4f42 1dbe
00000390: e4ac ff3d ffe0 a63e b720 243f 9c47 fcbe
000003a0: be87 2fbe 2a27 20bf 8c22 27bf 68ea adbd
000003b0: 41cd 02be 371b ecbd 4c65 eb3c 9730 173f
000003c0: 04f2 9abd 9bcf 46be 01d1 1dbf fcd6 d33d
000003d0: 3a5e 403e a5fd 983f 5dfe 723e 2d81 fbbd
000003e0: 043c 533f 1882 4bbd 5443 813e 9d89 ccbd
000003f0: d20f 31bd 092b 973d 6a5d 6abe ffbe 85be

TransformerBlocks.1.attention.toqueries.bias f4 [12]
-0.29964453 0.31416115 -0.6652576 -0.3312753 -0.43070936 -0.32588837 0.0410186 -0.71838707
-0.30033663 0.399205 0.1104348 0.13403973
00000000: 026b 99be bbd9 a03e 524e 2abf eb9c a9be
00000010: f085 dcbe d7da a6be 1f03 283d 37e8 37bf
00000020: b9c5 99be 9964 cc3e a42b e23d b641 093e

TransformerBlocks.1.attention.tokeys.weight f4 [12, 4, 6]
-0.10758022 -0.13908662 0.04618141 -0.04785174 -0.17162612 0.21287395 0.3636512 0.3153108
0.3058823 0.19616577 -0.3930242 0.22011411 -0.09329574 0.24736968 -0.3784838 0.5980756
0.3968781 -0.698736 -0.36444497 -0.4634177 -0.09939802 0.008807145 -0.15663439 0.8030171
-0.35536158 0.03682481 0.038995635 -0.530564 -0.6184624 0.3050958 0.10409977 -0.023397833
0.07404948 0.13992068 0.261429 0.55037975 -0.070090316 0.18371023 -0.46644124 0.025825178
0.21540728 -0.5834967 -0.009114727 0.24496281 0.12858422 -0.22281113 -0.4856967 0.17430261
-0.10687661 -0.07135436 -0.053014852 -0.038386043 0.017365461 -0.27476215 0.81779206 0.19751886
0.29063964 0.05537789 0.024719294 -0.58128387 -0.5697549 -0.3666377 0.08583992 -0.23798537
-0.05109851 0.2876048 -0.65870184 -0.1293206 -0.15769573 -0.11194662 0.23635064 0.23699306
0.5918397 0.17698532 0.10481951 0.2654953 0.042725522 -0.43772256 -0.8178793 -0.24263142
0.36268798 -0.2814591 -0.24079168 0.72197485 -0.36238372 0.06428449 -0.2828469 0.13200563
-0.69911444 -0.19271347 0.58305115 0.37847114 -0.15952033 0.50378686 0.45410398 -0.7897271
-0.10159621 0.48634648 -0.4286857 -0.051751323 0.5849969 -0.018185867 -0.22433113 -0.62021947
-0.16133776 0.0048920424 -0.44802696 -0.22515157 0.087381996 0.2973293 0.49365467 -0.65501624
0.3088221 0.23522665 0.2812618 0.1729751 -0.11606434 0.11573778 0.48460516 0.21138221
0.073735625 -0.042553563 0.05075962 0.11506219 -0.3465522 -0.4391197 -0.4120737 0.07939782
0.47433499 -0.40547907 0.36537975 0.24628468 0.39944363 0.1773359 -0.062408783 0.41855606
-0.5973877 -0.13886905 0.09393863 -0.12619327 -0.575637 0.80636823 -0.123341694 0.15471324
0.05738627 -0.08357035 -0.4390134 -0.019465337 -0.3239433 -0.090562314 -0.15723376 -0.06359201
0.30877975 -0.3650409 -0.25622994 0.37022278 0.57980645 0.30232084 0.52487415 0.22164752
0.22488646 -0.060130768 -0.045159835 0.19708918 -0.35708383 0.19314528 0.5018567 -0.4142938
0.01263744 0.06877649 -0.43431598 -0.3690048 -0.39831105 -0.31105372 0.041520245 -0.12991887
0.7270359 0.032723814 0.5971722 -0.27052176 -0.69155777 -0.15267974 0.677276 -0.081926025
-0.46911746 0.24973725 0.38059792 0.46903887 -0.9568421 -0.074446835 -0.49369806 -0.10516065
-0.01897145 0.11200648 -0.061480563 -0.18242198 -0.02578376 -0.31588197 -0.15508458 0.46920797
0.50205857 0.2715663 0.3388541 0.107048415 -0.023124492 -0.38921076 -0.13331394 0.032058783
-0.009141745 0.47944993 0.10407771 -0.23616514 -0.035087854 -0.3985284 -0.10300609 -0.034223493
-0.20941707 -0.06140402 -0.2947087 -0.252174 -0.27685806 -0.38724864 -0.012046764 0.09233526
-0.26782942 -0.39298546 0.19338645 0.22563198 0.25063974 0.03013344 0.35574198 0.6332106
0.40265372 -0.33504844 -0.13585366 -0.39977705 -0.045660555 0.013733449 -0.11435956 -0.061893005
-0.30380428 -0.2559622 -0.25865272 -0.58627504 -0.15146399 -0.27799657 -0.19166893 -0.23582421
-0.011213578 0.39328223 0.43965533 0.40829167 -0.25822598 -0.2163089 0.32268235 0.21603765
00000000: 0553 dcbd b96c 0ebe b828 3d3d 3000 44bd
00000010: c2be 2fbe a1fb 593e 7d30 ba3e 6b70 a13e
00000020: 9b9c 9c3e aedf 483e 783a c9be 9865 613e
00000030: d611 bfbd 7a4e 7d3e a1c8 c1be 7c1b 193f
00000040: 9b33 cb3e 5de0 32bf 8898 babe 1645 edbe
00000050: 3091 cbbd d84b 103c c464 20be 8792 4d3f
00000060: f4f1 b5be 9dd5 163d e3b9 1f3d 0bd3 07bf
00000070: 8d53 1ebf 8435 9c3e 4332 d53d d0ac bfbc
00000080: 41a7 973d 5e47 0f3e 06da 853e b0e5 0c3f
00000090: 838b 8fbd 891e 3c3e 63d1 eebe 538f d33c
000000a0: ba93 5c3e 0a60 15bf f055 15bc 88d7 7a3e
000000b0: 95ab 033e 9a28 64be 3dad f8be 627c 323e
000000c0: 20e2 dabd 3c22 92bd 1a26 59bd af3a 1dbd
000000d0: 0342 8e3c a0ad 8cbe d25a 513f 6242 4a3e
000000e0: b8ce 943e edd3 623d 1e80 ca3c 05cf 14bf
000000f0: 75db 11bf f0b7 bbbe d7cc af3d 70b2 73be
00000100: ac4c 51bd f040 933e afa0 28bf 9f6c 04be
00000110: fd7a 21be 4544 e5bd e705 723e 4fae 723e
00000120: ce82 173f a43b 353e 9cab d63d 00ef 873e
00000130: f500 2f3d 2c1d e0be 8a60 51bf 5f74 78be
00000140: 3db2 b93e 681b 90be 1892 76be 58d3 383f
00000150: 5c8a b9be 96a7 833d 4fd1 90be 7c2c 073e
00000160: 2af9 32bf ae56 45be d742 153f f8c6 c13e
00000170: 4c59 23be 2df8 003f 5180 e83e 8e2b 4abf
00000180: ac11 d0bd 6802 f93e b17c dbbe 32f9 53bd
00000190: 5bc2 153f 87fa 94bc 0fb7 65be b4c6 1ebf
000001a0: ba35 25be 6d4d a03b ca63 e5be 228e 66be
000001b0: 55f5 b23d 8c3b 983e 4ec0 fc3e 25af 27bf
000001c0: ee1d 9e3e 41df 703e 8c01 903e 6220 313e
000001d0: 24b3 edbd ee07 ed3d 2b1e f83e 9474 583e
000001e0: b402 973d a54c 2ebd 52e9 4f3d baa5 eb3d
000001f0: 4a6f b1be 4cd4 e0be 53fb d2be 539b a23d
00000200: 09dc f23e f49a cfbe 0e13 bb3e 0d32 7c3e
00000210: e083 cc3e 8b97 353e 5aa0 7fbd fb4c d63e
00000220: 66ee 18bf b033 0ebe e562 c03d cf38 01be
00000230: f25c 13bf 266e 4e3f 929a fcbd 266d 1e3e
00000240: de0d 6b3d ef26 abbd 5dc6 e0be c575 9fbc
00000250: e5db a5be bc78 b9bd e301 21be 873c 82bd
00000260: 6118 9e3e a4e6 babe 9230 83be d78d bd3e
00000270: 326e 143f ccc9 9a3e 275e 063f 91f7 623e
00000280: a348 663e ae4b 76bd 85f9 38bd bfd1 493e
00000290: b1d3 b6be e0c7 453e ae79 003f 511e d4be
000002a0: 440d 4f3c b0da 8c3d aa5e debe 32ee bcbe
000002b0: 6def cbbe 6f42 9fbe 2211 2a3d 7409 05be
000002c0: 061f 3a3f 6809 063d 47e0 183f d481 8abe
000002d0: ee09 31bf 1458 1cbe f661 2d3f d5c8 a7bd
000002e0: 2a30 f0be 1fbb 7f3e bbdd c23e dd25 f03e
000002f0: 9bf3 74bf 9577 98bd fec5 fcbe 785e d7bd
00000300: 046a 9bbc a763 e53d 0bd3 7bbd d4cc 3abe
00000310: 7738 d3bc 48bb a1be 7ece 1ebe 073c f03e
00000320: e986 003f bd0a 8b3e 497e ad3e 333c db3d
00000330: 936f bdbc a246 c7be 7383 08be 1250 033d
00000340: 42c7 15bc 767a f53e b226 d53d 46d5 71be
00000350: 48b8 0fbd ea0b ccbe dbf4 d2bd ef2d 0cbd
00000360: 6e71 56be c882 7bbd 0fe4 96be f31c 81be
00000370: 57c0 8dbe 7445 c6be ca5f 45bc 451a bd3d
00000380: f020 89be 6435 c9be 1907 463e 120c 673e
00000390: da53 803e 67da f63c d023 b63e 171a 223f
000003a0: a128 ce3e 788b abbe 391d 0bbe 94af ccbe
000003b0: 9006 3bbd 4302 613c 5835 eabd 8583 7dbd
000003c0: 3c8c 9bbe 7a0d 83be 216e 84be 1f16 16bf
000003d0: 6019 1bbe 9155 8ebe dc44 44be e77b 71be
000003e0: 28b9 37bc 4a5c c93e 811a e13e 9b0b d13e
000003f0: 3236 84be 1580 5dbe 9f36 a53e f938 5d3e

TransformerBlocks.1.attention.tokeys.bias f4 [12]
-0.3115763 0.52785814 -0.033884037 -0.24338493 0.07864007 1.3896697 -0.045408987 0.31436074
-0.14878641 0.0077247107 -0.16335812 0.12502852
00000000: ee86 9fbe b621 073f fdc9 0abd e639 79be
00000010: 0c0e a13d b2e0 b13f c6fe 39bd e4f3 a03e
00000020: 775b 18be 921f fd3b 5a47 27be 7a07 003e

TransformerBlocks.1.attention.tovalues.weight f4 [12, 4, 1]
0.2588203 0.52912056 -0.21861503 0.35822108 -0.12216927 -0.019575626 0.072545186 0.47896516
0.108143054 0.4333024 -0.30816022 -0.1771761 0.054283343 0.23863076 -0.24355258 0.31360587
-0.02931916 -0.23681027 -0.31744173 0.06726307 0.45540777 0.5013772 -0.5891419 0.5375154
-0.5176072 -0.9358402 0.3899927 0.7764449 -0.021725228 0.15179835 0.25718704 0.28130326
-0.115201205 0.13398553 -0.04385805 -0.025874777 -0.40889174 0.09591077 -0.36878684 -0.39886832
-0.017541483 -0.21088736 0.19723311 0.042582497 0.11453394 -0.20717394 0.8255622 0.29145047
00000000: 1884 843e 7274 073f 9edc 5fbe c168 b73e
00000010: e233 fabd 105d a0bc 9292 943d ec3a f53e
00000020: 1b7a dd3d d0d9 dd3e 2dc7 9dbe a76d 35be
00000030: 3658 5e3d 9f5b 743e d965 79be f390 a03e
00000040: bc2e f0bc 647e 72be b987 a2be 38c1 893d
00000050: 352b e93e 425a 003f 01d2 16bf 9c9a 093f
00000060: e881 04bf 3993 6fbf 20ad c73e 18c5 463f
00000070: 1bf9 b1bc 0771 1b3e 05ae 833e fb06 903e
00000080: 9cee ebbd 8133 093e 80a4 33bd 57f7 d3bc
00000090: 425a d1be de6c c43d a1d1 bcbe 7838 ccbe
000000a0: 28b3 8fbc dbf2 57be 7af7 493e fc6a 2e3d
000000b0: c590 ea3d 6825 54be 0b58 533f ff38 953e

TransformerBlocks.1.attention.unifyheads.weight f4 [4, 12]
-0.018373415 -0.43229035 0.13244592 0.15767528 -0.06294701 -0.2688526 0.004822983 0.3653333
-0.16603225 -0.32773387 -0.12611052 0.010232388 0.09601896 -0.35068443 -0.1598506 0.48126468
0.042237382 -0.26257437 -0.3639293 0.5393794 -0.21985376 -0.23737042 -0.38048074 0.18241747
-0.03376145 0.62174124 -0.1644375 -0.09393636 0.25843427 0.26563507 -0.2074205 -0.84436095
0.55238396 0.74022645 0.17351556 -0.08293648 -0.29585236 -0.093099594 0.4372716 -0.10232889
-0.19985972 -0.0044435444 0.46994877 -0.018764362 -0.035987176 0.09526655 0.36458737 0.046752945
00000000: d883 96bc 2955 ddbe e79f 073e a175 213e
00000010: 5dea 80bd 0ca7 89be 1d0a 9e3b f70c bb3e
00000020: 5c04 2abe bccc a7be 1e23 01be bfa5 273c
00000030: 97a5 c43d e98c b3be e0af 23be 5368 f63e
00000040: 1b01 2d3d 2670 86be f154 babe c514 0a3f
00000050: 5821 61be 3b11 73be 5fce c2be a5cb 3a3e
00000060: 7249 0abd 6f2a 1f3f 4e62 28be b561 c0bd
00000070: 7f51 843e 5201 883e 0a66 54be 0a28 58bf
00000080: 0969 0d3f 7b7f 3d3f 10ae 313e 9ada a9bd
00000090: f679 97be 00ab bebd 10e2 df3e cf91 d1bd
000000a0: 07a8 4cbe 279b 91bb 209d f03e b8b7 99bc
000000b0: 4a67 13bd 1c1b c33d 32ab ba3e 0480 3f3d

TransformerBlocks.1.attention.unifyheads.bias f4 [4]
0.037489627 0.0838995 -0.42985612 0.65904313
00000000: b98e 193d 80d3 ab3d 1a16 dcbe 0db7 283f

TransformerBlocks.1.norm1.weight f4 [4]
1.1580756 1.034102 0.90069324 1.0710936
00000000: d23b 943f 745d 843f d593 663f 9819 893f

TransformerBlocks.1.norm1.bias f4 [4]
0.013864015 0.003977784 -0.15543213 -0.14654456
00000000: e525 633c 1258 823b 9a29 1fbe c70f 16be

TransformerBlocks.1.norm2.weight f4 [4]
0.8492001 0.69464964 1.3561454 0.8205549
00000000: 2e65 593f 8fd4 313f 2c96 ad3f e30f 523f

TransformerBlocks.1.norm2.bias f4 [4]
0.17444038 0.5397354 -0.076088585 -0.07397077
00000000: 80a0 323e 192c 0a3f 55d4 9bbd fd7d 97bd

TransformerBlocks.1.feedforward.0.weight f4 [16, 4]
-0.10066435 -0.3129996 0.70414853 0.06323033 0.3872472 -0.059943017 0.08365161 -0.3095491
0.4274556 0.3225153 -0.6563655 0.47065744 -0.006153476 -0.18053554 -0.38523802 -0.65878344
0.097252995 0.23527686 -0.5180964 -0.055515114 -0.08967632 0.21940778 0.55061245 0.15272173
-0.04185544 0.10419135 -0.016238328 0.5971211 -0.48000664 0.45834717 -0.02293095 0.48632303
-0.04302585 -0.38222137 0.11025098 -0.3257875 -0.07779691 -0.31646574 0.30046615 0.06240832
0.15852161 0.41489744 -0.07346809 -0.019177753 -0.26701677 0.24206464 0.06829067 0.034432005
0.33389387 -0.25203815 -0.2459396 -0.356831 -0.035721816 -0.56900954 0.35690743 -1.0130093
0.5753293 0.02935382 0.49748272 0.5198479 -0.3388866 0.12095179 -0.7017072 -0.4975125
00000000: 1c29 cebd 7c41 a0be 1443 343f e77e 813d
00000010: 4445 c63e cf86 75bd 8951 ab3d 387d 9ebe
00000020: 76db da3e ba20 a53e 9207 28bf 03fa f03e
00000030: 19a3 c9bb 4fde 38be eb3d c5be 08a6 28bf
00000040: 942c c73d 6bec 703e f7a1 04bf d163 63bd
00000050: 38a8 b7bd 6fac 603e f0f4 0c3f 1663 1c3e
00000060: 9c70 2bbd 4662 d53d 3e06 85bc eedc 183f
00000070: 6ec3 f5be 7bac ea3e b0d9 bbbc 55ff f83e
00000080: e03b 30bd 85b2 c3be 44cb e13d 9fcd a6be
00000090: fd53 9fbd cc07 a2be b3d6 993e de9f 7f3d
000000a0: 7d53 223e 706d d43e 7076 96bd aa1a 9dbc
000000b0: 6cb6 88be cbdf 773e fbdb 8b3d 9308 0d3d
000000c0: 23f4 aa3e 250b 81be 97d7 7bbe 8eb2 b6be
000000d0: 0a51 12bd 9caa 11bf 92bc b63e 4aaa 81bf
000000e0: c848 133f 6c77 f03c 0eb6 fe3e c114 053f
000000f0: 8b82 adbe 92b5 f73d 15a3 33bf f5b9 febe

TransformerBlocks.1.feedforward.0.bias f4 [16]
-0.57987475 0.49211204 -0.25734323 0.5670144 -0.4499888 0.2944166 -0.07741992 0.0858724
-0.1981237 -0.34585413 -0.6485681 0.29528573 -0.10567578 0.35085988 -0.31887296 0.67933655
00000000: ac72 14bf 1cf6 fb3e 7ec2 83be db27 113f
00000010: ef64 e6be c6bd 963e 568e 9ebd dedd af3d
00000020: f0e0 4abe cb13 b1be 8f08 26bf b12f 973e
00000030: 8b6c d8bd e8a3 b33e 5143 a3be 00e9 2d3f
