models/elect/ConvTransformer_elect2020-05-10 11:13:36.815714.pth (torch_old, 80910 bytes, 147 tensors)

token_embedding.weight f4 [370, 4]
-1.0283096 -0.46147016 -1.5646769 1.0310769 -1.0375875 -0.06966284 0.453658 -1.4482703
1.8118668 -0.50970924 2.1354272 0.40891492 -0.20062526 1.1820949 0.07635767 -0.82389355
-0.3920977 -0.63250625 0.6034457 0.4686746 0.44176868 -0.8285269 -1.1800964 -0.008524705
1.411353 0.21519223 1.9080606 -2.2947412 -0.14744939 -0.6081961 -0.9861032 0.32944566
-0.054580808 0.3850524 -0.3028793 0.4855964 -0.39771324 -1.3364695 -0.76575726 0.1362687
0.6621466 0.6739813 0.33207002 0.9789151 -0.104070716 0.8917425 0.055045504 0.70791376
-0.12254868 -0.78714216 0.6127988 -0.92886585 0.07545409 1.0676526 0.50106406 0.24501376
0.25588554 -0.049143966 -1.0928541 -1.0156269 0.04830639 -0.6067173 -0.18930897 -0.09522352
0.040460676 0.9966139 0.36703736 0.06295962 -0.61686254 1.3204268 -0.79290223 1.5200728
-0.13425766 1.497335 1.6969221 -0.6443239 -0.60858476 0.6849859 -0.6671033 -0.28764632
-0.8409199 0.2971482 1.2152958 -0.99258035 0.08859482 1.2779846 0.28056493 -0.064068474
0.8879392 -0.24115112 0.5214325 -0.26953855 -0.19325782 -1.5441034 2.268995 1.0836217
0.5342961 1.3727794 1.4320403 1.2295564 -0.70942944 -0.1998538 -0.29008237 -0.2846269
-0.55370885 -0.66044706 0.13468024 -0.6020848 0.96554804 0.6839488 0.24549687 -1.097452
2.391785 -0.35992038 -1.2347215 1.8641135 -0.60672057 1.3699061 -2.231803 -0.3227893
-0.10041921 -0.6341317 1.4517711 0.8596502 -0.43739575 -2.133999 -1.384722 -0.026261194
0.9584492 0.27062348 -0.7622068 0.41395375 1.1309394 0.0468582 -0.32450056 0.6176463
-0.10152682 0.23043805 1.2828975 -0.684063 -0.9397452 -0.037119173 0.0698758 -0.71193606
0.59191793 0.9603885 0.7230662 0.46557695 -0.81954783 0.5645947 1.0705334 -1.150056
-0.060053576 1.2547305 0.44281694 -1.207554 -0.60894895 -1.2266039 -0.031118654 -0.6994421
1.7777419 -2.2148123 -0.09456526 -1.6085827 -0.24123551 -0.052465547 0.80223054 1.0042613
-0.28938046 -0.07959565 -1.2972003 -0.30956998 2.2659235 0.30711973 0.21470793 0.39218912
-0.36518344 -0.9396323 0.7985528 -0.68425286 0.97362876 0.46512386 -0.34746632 -0.04635719
0.064728945 0.5494574 0.034529943 -0.4817282 -0.99422234 -1.413186 0.96459526 0.26332614
0.020446174 -1.7189658 -0.5150367 0.5747619 0.6740027 -0.40641534 1.52786 -0.032961287
-1.3388599 -0.38450024 2.1735876 1.8023919 0.44270498 0.20104145 0.10011008 -0.33484852
-0.33755326 -0.090996355 -0.8296718 0.29311162 -0.45652658 -0.27087608 3.3745682 -2.3368833
-0.582871 -1.3485135 0.9011659 -0.19460225 -1.6461363 1.3351818 1.4223899 -0.08709283
1.1986796 -1.1523377 0.14092138 -0.5907345 3.4727557 0.09145542 1.3280357 -0.16844073
0.33723927 0.11592537 -0.10732674 -0.17772992 -0.18866633 -0.7051615 0.0021005059 -0.423722
-0.4909091 -0.45564258 0.13564625 0.31367987 0.97944635 -1.9897108 0.89326686 -0.5393434
0.44677424 0.72003895 1.0991495 1.001966 0.5989593 0.5518106 -0.21051341 0.8701115
00000000: a69f 83bf d145 ecbe 5547 c8bf 54fa 833f
00000010: abcf 84bf 64ab 8ebd dd45 e83e ec60 b9bf
00000020: 40eb e73f 4e7c 02bf d7aa 0840 4c5d d13e
00000030: b570 4dbe e34e 973f 6961 9c3d b0ea 52bf
00000040: 08c1 c8be eeeb 21bf 6b7b 1a3f 1ef6 ef3e
00000050: 812f e23e 571a 54bf 660d 97bf 34ab 0bbc
00000060: 37a7 b43f 5a5b 5c3e 543b f43f 0add 12c0
00000070: f9fc 16be bdb2 1bbf 4271 7cbf 1aad a83e
00000080: 2090 5fbd 9725 c53e ff12 9bbe 17a0 f83e
00000090: 12a1 cbbe 6f11 abbf ab08 44bf 068a 0b3e
000000a0: 7182 293f 0a8a 2c3f 1505 aa3e 2e9a 7a3f
000000b0: 0723 d5bd 3d49 643f 6577 613d d639 353f
000000c0: cdfa fabd 2682 49bf 62e0 1c3f 27ca 6dbf
000000d0: ad87 9a3d d7a8 883f bc45 003f e3e4 7a3e
000000e0: 6e03 833e 2f4b 49bd a5e2 8bbf 1000 82bf
000000f0: ecdc 453d d351 1bbf 36da 41be 8d04 c3bd
00000100: 18ba 253d 1722 7f3f 52ec bb3e f9f0 803d
00000110: b4ea 1dbf bf03 a93f a4fb 4abf bf91 c23f
00000120: d77a 09be aca8 bf3f be34 d93f 69f2 24bf
00000130: 36cc 1bbf 3c5b 2f3f 48c7 2abf 6146 93be
00000140: 8746 57bf cf23 983e d08e 9b3f bf19 7ebf
00000150: 3371 b53d 0095 a33f 35a6 8f3e 5536 83bd
00000160: fc4f 633f 52f0 76be 9a7c 053f f500 8abe
00000170: 61e5 45be 2ea5 c5bf 3737 1140 1eb4 8a3f
00000180: a1c7 083f 3cb7 af3f 194d b73f 1b62 9d3f
00000190: 2b9d 35bf 79a6 4cbe ad85 94be 9eba 91be
000001a0: ddbf 0dbf 0f13 29bf 9ee9 093e 3b22 1abf
000001b0: 282e 773f 4517 2f3f 8863 7b3e 4f79 8cbf
000001c0: 0113 1940 7c47 b8be 5b0b 9ebf 459b ee3f
000001d0: 0a52 1bbf 1559 af3f dcd5 0ec0 a444 a5be
000001e0: 96a8 cdbd 7556 22bf a3d3 b93f 0912 5c3f
000001f0: 56f2 dfbe 7193 08c0 923e b1bf b721 d7bc
00000200: ed5c 753f 298f 8a3e fc1f 43bf bff1 d33e
00000210: 9fc2 903f 62ee 3f3d f024 a6be 111e 1e3f
00000220: 4bed cfbd f4f7 6b3e fc35 a43f c11e 2fbf
00000230: 2493 70bf 460a 18bd 0b1b 8f3d 7141 36bf
00000240: ef87 173f 05dc 753f de1a 393f 1a60 ee3e
00000250: e3cd 51bf 4789 103f 3d07 893f 0935 93bf
00000260: bdfa 75bd 029b a03f e7b8 e23e 2191 9abf
00000270: 14e4 1bbf 5b01 9dbf 8cec febc a30e 33bf
00000280: 0c8d e33f 7cbf 0dc0 6eab c1bd 0ae6 cdbf
00000290: 7106 77be 1de6 56bd fb5e 4d3f a28b 803f
000002a0: ad29 94be 0b03 a3bd a90a a6bf f57f 9ebe
000002b0: e404 1140 cc3e 9d3e 65dc 5b3e 03cd c83e
000002c0: 53f9 babe be8b 70bf f56d 4c3f 322b 2fbf
000002d0: bc3f 793f b724 ee3e 1be7 b1be 09e1 3dbd
000002e0: 9c90 843d 3da9 0c3f 456f 0d3d 14a5 f6be
000002f0: 5b85 7ebf 47e3 b4bf b7ef 763f afd2 863e
00000300: bc7e a73c 1207 dcbf 72d9 03bf 9923 133f
00000310: 718b 2c3f ac15 d0be eb90 c33f 6a02 07bd
00000320: c35f abbf 37dd c4be 0f1c 0b40 c7b4 e63f
00000330: 3aaa e23e cfdd 4d3e 8306 cd3d 4471 abbe
00000340: c8d3 acbe 4c5c babd 5f65 54bf ba12 963e
00000350: dabd e9be 45b0 8abe edf8 5740 7f8f 15c0
00000360: 0937 15bf 179c acbf cfb2 663f d045 47be
00000370: 98b4 d2bf 3de7 aa3f df10 b63f ba5d b2bd
00000380: 556e 993f cd7f 93bf b24d 103e 603a 17bf
00000390: a141 5e40 fb4c bb3d 13fd a93f ba7b 2cbe
000003a0: a0aa ac3e 486a ed3d 1fce dbbd d5fe 35be
000003b0: bf31 41be 7785 34bf a4a8 093b 17f2 d8be
000003c0: 7058 fbbe fc49 e9be dae6 0a3e a69a a03e
000003d0: ffbc 7a3f d8ae febf 23ad 643f 6912 0abf
000003e0: 98bf e43e 7954 383f eeb0 8c3f 6c40 803f
000003f0: 6655 193f 7643 0d3f d490 57be a1bf 5e3f

position_embedding.weight f4 [100, 4]
2.2853954 -0.7803449 -0.9531802 3.7331436 0.11006283 0.14250761 -0.87826985 0.7233413
-0.9254172 -0.22522385 -0.3540451 -1.4444988 1.2668421 -1.9806728 -0.33581588 0.8504223
-0.70029 -0.5056415 -0.45180607 0.58086914 -0.9739794 0.05315197 -0.53546757 -0.567112
0.1395494 -0.5708675 -0.18230662 -1.1444123 -0.03825136 1.3765852 0.464064 -0.027003432
0.060061313 -0.511193 -0.27118686 0.4442449 0.7878632 0.1273946 1.794639 -0.8262737
0.21267936 1.2624236 -0.6698883 -1.3952186 0.9997839 -1.1211097 -0.0056999237 -0.3518166
-1.1026704 0.6109154 -1.3502747 -1.3003575 -0.1970269 0.6083054 1.3623979 0.57421523
0.7462665 1.491454 -0.7412677 0.94680893 -0.2667461 0.7871905 -1.4193883 1.2287781
0.81874686 -0.5441471 -0.47220728 -1.15946 0.5940283 -0.386888 1.2138263 1.4002497
0.3991986 -0.29923683 -1.8589243 -1.2388594 -0.6780116 0.6416633 -0.7068824 -0.22423393
1.4517996 0.6800412 0.56562865 -1.151673 -0.026689578 -0.7012148 -1.6626136 1.5506178
-0.5454681 -0.76274073 1.5672255 -1.0365393 0.18517871 0.60426927 -1.3626467 -0.7685815
-0.47986618 2.0198538 -0.8797651 -0.42880905 1.8226502 -1.110932 -1.9044266 -0.5111253
-0.8652155 1.3171645 0.9824507 -0.6534589 -0.6477216 1.7849641 1.2619958 -1.5155888
-1.1697203 -0.53112316 -0.040439457 0.26336098 -0.40507868 0.13306564 0.4654452 -0.9723734
-0.237567 -0.4024231 -0.5705451 -1.7547573 0.65713996 -0.63864565 -0.120929636 0.32001704
-0.22093417 0.7503468 1.0298499 0.42290527 -0.14990377 0.17351519 0.5995 0.93333405
-0.44906053 -0.6374037 -0.6801937 0.94480455 0.16727726 -0.72394794 -0.6226715 -0.5398885
-0.53425163 -0.33419904 -0.9688496 0.2124803 0.2993828 0.039640997 0.71619844 0.79427665
0.44756222 0.89933074 -0.014192318 -2.0018845 -1.1258743 1.416706 -0.5029181 -1.1711925
-0.18800844 -0.13848741 -0.9994685 0.047470618 0.48521093 -0.048634343 0.54291666 -0.68603486
-0.023500502 -0.30234775 0.023085872 0.1046362 0.4131812 1.2573913 -1.0202401 1.081341
-0.14793727 -0.13376185 -1.0155735 1.7947482 -1.8463047 -0.9621252 -2.0725384 0.50609064
1.9356985 -0.38069507 -0.64242893 0.5758673 0.004804522 0.050750334 2.2175968 -0.2850723
-0.30896947 -0.16056095 -1.2480156 0.7627385 0.896834 -0.92620546 0.72038925 -0.528286
-1.3544977 -0.17042172 0.48872566 -0.024169276 0.53997207 -0.5988337 0.89201266 -0.18774454
-0.93699265 1.1055859 0.9109882 1.4960965 0.33129045 0.7913941 -0.60350657 -2.3354008
0.78329974 -0.0007253898 1.0694984 -2.173492 2.3732011 0.34630835 2.4763126 -0.1396939
1.2804579 -0.15538132 -1.5299871 -1.0756907 0.13329433 -1.6745102 0.011833863 0.940604
-0.02740321 -0.43909743 0.5895621 -1.1163992 0.3218221 -0.39524335 -0.29349136 -0.08301562
1.4098985 0.117352985 -0.105007984 0.6448863 -1.5429753 -0.8506007 0.7473651 0.24117969
0.008741212 0.40851703 -0.01847839 -0.07366673 1.2666761 1.0043708 -0.016482247 0.14242473
00000000: eb43 1240 afc4 47bf 9e03 74bf d3eb 6e40
00000010: 9f68 e13d 84ed 113e 4bd6 60bf e52c 393f
00000020: 24e8 6cbf 15a1 66be 6645 b5be 56e5 b8bf
00000030: e227 a23f b086 fdbf 0ff0 abbe 47b5 593f
00000040: 3546 33bf b971 01bf 2053 e7be d7b3 143f
00000050: b756 79bf e1b5 593d 6714 09bf 412e 11bf
00000060: 0ae6 0e3e 5f24 12bf 96ae 3abe 1a7c 92bf
00000070: 75ad 1cbd f233 b03f cc99 ed3e 4d36 ddbc
00000080: da02 763d 8bdd 02bf 01d9 8abe 1174 e33e
00000090: 67b1 493f bb73 023e bbb6 e53f ac86 53bf
000000a0: 9ec8 593e 1997 a13f cd7d 2bbf 8696 b2bf
000000b0: d6f1 7f3f 8680 8fbf 6dc6 babb 4e21 b4be
000000c0: 4e24 8dbf f464 1c3f cdd5 acbf 1d72 a6bf
000000d0: 6bc1 49be e7b9 1b3f 0e63 ae3f c5ff 123f
000000e0: 520b 3f3f f7e7 be3f b8c3 3dbf 1262 723f
000000f0: f292 88be 5185 493f 84ae b5bf 9a48 9d3f
00000100: 6599 513f 394d 0bbf 27c5 f1be 2f69 94bf
00000110: 3d12 183f 2f16 c6be a95e 9b3f 623b b33f
00000120: c263 cc3e 9235 99be 3bf1 edbf f292 9ebf
00000130: 2b92 2dbf 0c44 243f 3ff6 34bf 949d 65be
00000140: 92d4 b93f 2e17 2e3f 0acd 103f 056a 93bf
00000150: 1aa4 dabc d082 33bf 86d0 d4bf a57a c63f
00000160: cca3 0bbf fa42 43bf d89a c83f 52ad 84bf
00000170: 7d9f 3d3e 64b1 1a3f 356b aebf c2c1 44bf
00000180: 05b1 f5be 4945 0140 4938 61bf dc8c dbbe
00000190: 9a4c e93f 0533 8ebf 40c4 f3bf 1cd9 02bf
000001a0: c37e 5dbf d998 a83f e481 7b3f 1549 27bf
000001b0: 15d1 25bf b479 e43f 1489 a13f d0fe c1bf
000001c0: 65b9 95bf b0f7 07bf d8a3 25bd 40d7 863e
000001d0: 7966 cfbe 5c42 083e d54e ee3e 77ed 78bf
000001e0: c344 73be 670a cebe 3e0f 12bf e39b e0bf
000001f0: 533a 283f 487e 23bf f5a9 f7bd 46d9 a33e
00000200: 913c 62be ba16 403f 1fd2 833f 0a87 d83e
00000210: 6080 19be f7ad 313e d578 193f fbee 6e3f
00000220: 43eb e5be e42c 23bf 2d21 2ebf b6de 713f
00000230: bb4a 2b3e a754 39bf 6667 1fbf 2236 0abf
00000240: b7c4 08bf 231c abbe 8706 78bf 7094 593e
00000250: b448 993e 995e 223d c858 373f b755 4b3f
00000260: e026 e53e 8a3a 663f e586 68bc e01e 00c0
00000270: a61c 90bf 9f56 b53f 3ebf 00bf a3e9 95bf
00000280: 4985 40be a5cf 0dbe 2bdd 7fbf 8d70 423d
00000290: 916d f83e ce34 47bd 96fc 0a3f fb9f 2fbf
000002a0: 2084 c0bc 53cd 9abe 951e bd3c 814b d63d
000002b0: 7c8c d33e 33f2 a03f 3a97 82bf 6269 8a3f
000002c0: de7c 17be def8 08be 50fe 81bf 4fba e53f
000002d0: b653 ecbf d64d 76bf 78a4 04c0 288f 013f
000002e0: f8c4 f73f 77ea c2be 3976 24bf 0a6c 133f
000002f0: 406f 9d3b 95df 4f3d 1bed 0d40 fff4 91be
00000300: 3f31 9ebe 176a 24be fabe 9fbf d542 433f
00000310: ea96 653f cd1b 6dbf 6e6b 383f c03d 07bf
00000320: 2e60 adbf 0883 2ebe 403a fa3e a5fe c5bc
00000330: 9c3b 0a3f 2a4d 19bf f15a 643f 1b40 40be
00000340: c0de 6fbf d783 8d3f 8636 693f 1780 bf3f
00000350: e79e a93e ce98 4a3f 687f 1abf 3577 15c0
00000360: 5586 483f 1628 3eba 53e5 883f 7e1a 0bc0
00000370: 87e2 1740 544f b13e e87b 1e40 eb0b 0fbe
00000380: 0be6 a33f 481c 1fbe 9ed6 c3bf 3cb0 89bf
00000390: 4f7e 083e 5a56 d6bf d2e2 413c 6ccb 703f
000003a0: b27c e0bc 61d1 e0be 8bed 163f 2be6 8ebf
000003b0: dec5 a43e 565d cabe 8044 96be 1804 aabd
000003c0: 8e77 b43f c356 f03d 6d0e d7bd 4517 253f
000003d0: 3780 c5bf f8c0 59bf 5253 3f3f cff7 763e
000003e0: 4d37 0f3c 2529 d13e fe5f 97bc 95de 96bd
000003f0: 7122 a23f 398f 803f c705 87bc cad7 113e

TransformerBlocks.0.attention.toqueries.weight f4 [12, 4, 6]
0.10290734 -0.22439009 0.08028376 0.16800636 -0.07961135 0.14657193 0.039787054 0.12562759
-0.15556 0.111417465 -0.16297314 0.112700544 0.014597118 -0.10415531 -0.17435691 0.047483105
0.11783007 -0.06614809 -0.03546871 0.044299807 0.054773744 -0.17167942 0.14822532 0.14603406
-0.17626302 -0.12209713 0.10042581 -0.119938426 -0.102842145 0.03828029 -0.006638274 0.14877526
0.069151536 0.09568727 -0.09519943 0.078734145 -0.17567477 -0.1562091 -0.14508034 -0.063566044
0.100753 0.20443538 -0.13912061 0.07947002 0.13414116 -0.18367833 0.00055513164 0.019481754
-0.14122984 -0.0596073 -0.021979315 -0.14040329 0.08445646 0.04119436 0.15308042 0.08646576
0.06670991 -0.019105716 0.12079756 -0.0036512334 0.1505392 -0.014995179 0.1710872 0.12806918
-0.04813352 0.057605553 -0.10976032 0.015348398 -0.064080834 -0.062452864 0.1362111 -0.08388611
0.038615085 0.21137586 -0.073869996 0.12798457 0.11753382 0.07043321 0.060061675 -0.049591273
-0.12526911 -0.001386305 -0.12605228 -0.034377977 0.2354803 0.2627031 0.06559155 0.21890861
0.07170474 -0.023149066 -0.07298076 0.025372714 0.11976607 0.0869037 0.114824384 -0.12777093
0.15171304 0.07017058 0.13367702 0.05532297 0.24369344 0.03868505 -0.054177668 -0.01652669
-0.034199677 -0.15436986 -0.018002003 0.16710766 0.043064427 0.2693447 0.22302896 -0.113871306
0.21354926 -0.06658948 -0.22691485 0.0056350436 -0.16611233 -0.0015910873 0.044193458 0.049679063
0.17849077 -0.11915081 -0.10947169 0.14754365 0.16486983 0.15517384 0.17435902 0.17561512
-0.019004198 0.09662119 0.21770853 0.17943332 0.14842072 -0.046246234 0.115101084 0.24353114
-0.09323492 -0.056476492 0.14935996 -0.18433799 -0.10613923 -0.22607306 -0.15285276 0.13780007
-0.18138918 -0.21139207 0.04563751 -0.055587407 -0.08617961 -0.12308033 -0.2356603 0.009206486
-0.1448323 0.118488565 -0.16289988 0.010042807 0.06947908 0.14945896 -0.160936 0.0739731
-0.14362746 0.10025452 -0.0027767716 0.0704883 -0.20595694 -0.20213121 -0.21597141 -0.19397607
-0.12552436 0.0030184598 -0.20192975 -0.13340022 -0.06751158 -0.06872511 0.09441759 0.008356801
-0.06839089 0.109985486 -0.24554195 0.017683418 -0.045200944 -0.041377105 0.014083398 0.07454379
0.14395155 0.1285969 0.05898902 -0.06746466 -0.16266012 -0.0125270635 -0.17994347 -0.0067448765
-0.12190395 -0.112329565 -0.061309416 -0.18536687 -0.1806579 0.0006375663 -0.030407758 -0.20101528
0.019768696 -0.11649807 -0.17581327 -0.075181395 0.12226353 0.08236134 -0.10815414 0.06089736
0.26491448 -0.095606774 -0.13712604 0.19316375 -0.18176548 -0.24831805 -0.017037196 0.07415414
-0.06080103 0.11804766 -0.102697715 -0.045325838 -0.08704862 0.1355143 0.084092475 -0.12831405
0.10415275 0.12580353 -0.17327659 -0.08401922 0.079089954 -0.09165034 0.00013067007 0.21181221
0.13774912 0.11055335 0.023650758 0.0233731 -0.16344674 0.09584468 0.06288038 -0.13272339
0.11702534 0.029365597 -0.08677298 -0.11767741 0.20234959 -0.02769612 -0.02237916 0.013134056
0.087220825 0.16929415 0.08296369 -0.15458202 0.028829165 0.039002 -0.11282155 0.03462977
00000000: 15c1 d23d 84c6 65be d06b a43d dc09 2c3e
00000010: 470b a3bd f416 163e c0f7 223d 85a4 003e
00000020: 1f4b 1fbe d72e e43d 6ee2 26be 8bcf e63d
00000030: c028 6f3c 614f d5bd 9e8a 32be a57d 423d
00000040: e450 f13d a678 87bd a347 11bd b773 353d
00000050: 6f5a 603d bbcc 2fbe 61c8 173e f489 153e
00000060: 4b7e 34be 0f0e fabd 0cac cd3d 47a2 f5bd
00000070: e79e d2bd cbcb 1c3d e185 d9bb 8b58 183e
00000080: 529f 8d3d b0f7 c33d ebf7 c2bd 5e3f a13d
00000090: 16e4 33be 47f5 1fbe f18f 14be ea2e 82bd
000000a0: 9757 ce3d 8257 513e a275 0ebe 2ec1 a23d
000000b0: 4d5c 093e 2c16 3cbe 4186 113a 3398 9f3c
000000c0: 8e9e 10be c926 74bd f70d b4bc e1c5 0fbe
000000d0: 82f7 ac3d 6bbb 283d 1dc1 1c3e f614 b13d
000000e0: 359f 883d 9783 9cbc b664 f73d 8849 6fbb
000000f0: f326 1a3e 57ae 75bc 7c31 2f3e 9124 033e
00000100: a727 45bd cdf3 6b3d 05ca e0bd d977 7b3c
00000110: d03c 83bd 93ce 7fbd ec7a 0b3e 7bcc abbd
00000120: da2a 1e3d ea72 583e 2749 97bd 630e 033e
00000130: 92b5 f03d 493f 903d 3b03 763d 3820 4bbd
00000140: 8c46 00be adb4 b5ba d913 01be eccf 0cbd
00000150: bf21 713e 0581 863e dd54 863d 9429 603e
00000160: efd9 923d 1ca3 bdbc f076 95bd 70da cf3c
00000170: ea47 f53d 91fa b13d 0c29 eb3d 62d6 02be
00000180: aa5a 1b3e 98b5 8f3d a1e2 083e 579a 623d
00000190: c68a 793e 3774 1e3d 67e9 5dbd fb62 87bc
000001a0: f614 0cbd 2213 1ebe f078 93bc 451e 2b3e
000001b0: 5364 303d 8ce7 893e b461 643e 5c35 e9bd
000001c0: a8ac 5a3e 1160 88bd 5e5c 68be 2ca6 b83b
000001d0: 5a19 2abe 088c d0ba 3304 353d 467c 4b3d
000001e0: 49c6 363e 5705 f4bd b232 e0bd af15 173e
000001f0: a3d3 283e e4e5 1e3e 2c8b 323e 73d4 333e
00000200: b1ae 9bbc 55e1 c53d fcee 5e3e 5ebd 373e
00000210: 9afb 173e b16c 3dbd 1eba eb3d 3a60 793e
00000220: f3f1 bebd e553 67bd d1f1 183e 19c3 3cbe
00000230: 865f d9bd b27f 67be 6f85 1cbe 761b 0d3e
00000240: 16be 39be 2a77 58be 66ee 3a3d 9faf 63bd
00000250: ef7e b0bd 8a11 fcbd ef50 71be cdd6 163c
00000260: eb4e 14be 22aa f23d 3acf 26be 968a 243c
00000270: 0c4b 8e3d c50b 193e 68cc 24be 357f 973d
00000280: 1413 13be 3e52 cd3d 7ffa 35bb 2b5c 903d
00000290: 60e6 52be 7cfb 4ebe 9c27 5dbe aaa1 46be
000002a0: 7589 00be 5ad1 453b acc6 4ebe 119a 08be
000002b0: 8343 8abd c0bf 8cbd 025e c13d f7ea 083c
000002c0: 8610 8cbd 1240 e13d 596f 7bbe d1dc 903c
000002d0: a024 39bd 0a7b 29bd 0dbe 663c 6aaa 983d
000002e0: 0968 133e e8ae 033e 789e 713d e92a 8abd
000002f0: 6090 26be 503e 4dbc 1a43 38be 2004 ddbb
00000300: c7a8 f9bd 0b0d e6bd 951f 7bbd d0d0 3dbe
00000310: 62fe 38be 5a22 273a b119 f9bc f3d6 4dbe
00000320: f6f1 a13c 8a96 eebd 6508 34be b4f8 99bd
00000330: 4d65 fa3d 10ad a83d eb7f ddbd 836f 793d
00000340: dfa2 873e 7ccd c3bd c56a 0cbe b8cc 453e
00000350: bb20 3abe 1647 7ebe 9791 8bbc 20de 973d
00000360: 800a 79bd f9c2 f13d 2e53 d2bd 96a7 39bd
00000370: 8c46 b2bd 43c4 0a3e ad38 ac3d c264 03be
00000380: 094e d53d a4d2 003e 6b6f 31be 4512 acbd
00000390: eaf9 a13d 2cb3 bbbd 7b04 0939 4de5 583e
000003a0: 1b0e 0d3e cb69 e23d 3cbf c13c f278 bf3c
000003b0: 955e 27be 374a c43d 6ec7 803d a4e8 07be
000003c0: fbaa ef3d 1f90 f03c 08b6 b1bd db00 f1bd
000003d0: bb34 4f3e f9e2 e2bc 8054 b7bc 3930 573c
000003e0: d5a0 b23d 725b 2d3e dee8 a93d c04a 1ebe
000003f0: 242b ec3c 90c0 1f3d fc0e e7bd f2d7 0d3d

TransformerBlocks.0.attention.toqueries.bias f4 [12]
0.04106443 0.0936587 0.14558886 -0.1035314 0.18418553 0.02911621 -0.027406253 -0.29303136
-0.11883538 0.15218097 0.0144888265 0.019670414
00000000: 2d33 283d 22d0 bf3d 3f15 153e 4508 d4bd
00000010: 229b 3c3e 1e85 ee3c 1483 e0bc 3508 96be
00000020: f75f f3bd 54d5 1b3e 8b62 6d3c d923 a13c

TransformerBlocks.0.attention.tokeys.weight f4 [12, 4, 6]
0.08535707 0.0030221336 -0.12987882 -0.15616111 -0.081570484 -0.09223655 0.18997197 0.06438854
0.11369469 -0.20035434 0.11931587 0.13282913 0.070246354 0.04817448 0.23463115 -0.020182755
-0.049666565 -0.1063297 -0.16284975 0.15282972 -0.007986041 0.12439024 0.056917965 0.03830523
-0.2287332 -0.0046266722 0.07377478 0.1513664 -0.08582357 0.047715362 0.026191538 0.1233489
-0.10991261 0.18109618 -0.18510309 0.05125407 -0.039210506 0.08937983 0.081271775 0.027696436
0.023291804 -0.06879449 -0.098509744 0.086641714 -0.18430367 0.045370344 0.20997648 -0.07774238
0.033527374 -0.06385596 -0.16157763 0.22414006 -0.0968023 0.008439142 -0.06926243 0.16451009
-0.062299855 0.044586528 0.027747009 -0.061205935 -0.04174804 0.10809264 0.04990015 0.082281046
-0.11562997 0.11008253 0.16867004 -0.082671806 -0.070055306 0.20896272 0.15445496 -0.10410618
0.07678921 0.050789207 0.12592924 -0.24356687 0.04552458 -0.06469145 -0.09870557 -0.02448923
0.07463165 -0.031690918 -0.0273647 0.16458161 -0.17858066 -0.08368568 0.052923672 -0.0040608873
-0.093091406 -0.10304548 -0.055810425 -0.13651426 0.0010120745 0.020456757 0.17347315 0.122913636
-0.043085743 0.100318395 0.041264668 -0.0044518546 0.10746015 0.01180582 0.006002911 0.15275986
-0.19685751 -0.15956718 0.021491354 -0.05703017 -0.066708796 0.059339106 -0.010068113 0.08980751
-0.15828054 -0.0147636365 0.048615295 0.0692236 0.16351865 -0.06660382 -0.11519076 0.09233917
0.21762596 0.17786372 0.07037352 0.20260121 -0.022880662 0.09502194 0.14486647 0.12904787
-0.05191813 0.2212865 0.090942115 0.1518131 -0.0922346 -0.070251934 -0.039556243 0.17863393
0.106532246 -0.050165292 -0.19062072 -0.10648958 0.09354899 -0.2412934 0.1315721 0.1162116
-0.008343815 -0.07396581 0.012585298 0.031080926 -0.098248154 -0.08971598 0.0062691527 0.050645337
0.09156412 0.16390216 0.08392105 -0.14656122 0.07582909 -0.13592975 -0.09892009 -0.1828773
0.1261875 0.11619325 -0.16337065 0.019130412 0.054168053 0.04465841 0.005201762 0.18053748
0.06550104 0.10523818 -0.07623068 -0.15987028 0.09791982 0.2186031 -0.043803304 -0.115123846
-0.043689333 0.053126626 0.21749832 0.10478857 0.09604829 -0.23925893 -0.14027119 0.0051278872
-0.22832221 -0.21029192 0.042303365 -0.055246808 -0.04468853 -0.037643183 0.1905225 0.007079263
-0.2538983 -0.14240542 -0.16922477 -0.06680752 -0.15755771 0.06860337 -0.18704267 -0.19158968
-0.079426 0.15868053 0.06869329 -0.15155934 -0.031074878 0.07202212 -0.054507438 0.20020986
0.069564335 0.13149248 0.038450733 0.05831547 -0.026204277 -0.14206201 0.020774964 -0.014880862
-0.19976442 -0.078101285 -0.099240705 -0.09934539 -0.10704141 -0.06578389 -0.02722415 -0.19320084
-0.07873024 -0.13161191 0.03565006 0.09615485 -0.064955644 0.032865867 0.06453527 0.15315132
0.009867165 0.09217857 0.12901159 0.02757224 -0.10289614 -0.118152685 -0.16757481 -0.14793585
0.020966686 0.078454934 -0.033349358 -0.1940494 -0.0378851 -0.08672261 -0.03403723 -0.04642914
0.114508815 -0.087349765 -0.08349973 0.024542805 -0.13950032 -0.039398372 -0.013693957 -0.039503727
00000000: b0cf ae3d fd0e 463b f4fe 04be b3e8 1fbe
00000010: 6d0e a7bd 84e6 bcbd 0388 423e 24de 833d
00000020: c3d8 e83d b029 4dbe e15b f43d 5c04 083e
00000030: 52dd 8f3d 9b52 453d 2643 703e 4e56 a5bc
00000040: 2b6f 4bbd 63c3 d9bd 16c2 26be 657f 1c3e
00000050: e2d7 02bc 4fc0 fe3d d022 693d f2e5 1c3d
00000060: 0939 6abe 579b 97bb 3b17 973d cbff 1a3e
00000070: 45c4 afbd 2f71 433d a38f d63c 599e fc3d
00000080: dd19 e1bd 4771 393e aa8b 3dbe caef 513d
00000090: 329b 20bd c60c b73d d171 a63d a3e3 e23c
000000a0: 74ce be3c 20e4 8cbd 7abf c9bd 3671 b13d
000000b0: 1aba 3cbe 41d6 393d 1304 573e 6637 9fbd
000000c0: 0054 093d eac6 82bd 9b74 25be f984 653e
000000d0: 4940 c6bd 5444 0a3c 76d9 8dbd 5575 283e
000000e0: 222e 7fbd 5da0 363d b24d e33c 13b3 7abd
000000f0: feff 2abd ad5f dd3d 1a64 4c3d f782 a83d
00000100: 68cf ecbd f372 e13d d7b7 2c3e d64f a9bd
00000110: 2879 8fbd 53fa 553e 7129 1e3e 9f35 d5bd
00000120: a943 9d3d 5808 503d 98f3 003e 9869 79be
00000130: fb77 3a3d f37c 84bd 2526 cabd a39d c8bc
00000140: 7ad8 983d 56ce 01bd ef2b e0bc 1588 283e
00000150: d9dd 36be 6663 abbd 7ec6 583d 3111 85bb
00000160: b5a6 bebd 8209 d3bd 7999 64bd 65ca 0bbe
00000170: 96a7 843a ee94 a73c f2a2 313e 25ba fb3d
00000180: ad7a 30bd bb73 cd3d 2405 293d dde0 91bb
00000190: 1114 dc3d 336d 413c 11b4 c43b 156d 1c3e
000001a0: 0495 49be 9465 23be a30e b03c 7898 69bd
000001b0: 9f9e 88bd 900d 733d baf4 24bc 00ed b73d
000001c0: 4b14 22be 2ee3 71bc d520 473d 1ac5 8d3d
000001d0: 6f71 273e 9567 88bd 22e9 ebbd 521c bd3d
000001e0: 57d9 5e3e e821 363e fe1f 903d b176 4f3e
000001f0: 3a70 bbbc dd9a c23d e057 143e 2025 043e
00000200: 1ba8 54bd ee98 623e dc3f ba3d e574 1b3e
00000210: 7ee5 bcbd 3fe0 8fbd ba05 22bd d0eb 363e
00000220: 942d da3d 1f7a 4dbd 1432 43be 3517 dabd
00000230: 9d96 bf3d 9e15 77be d6ba 063e 5900 ee3d
00000240: 7fb4 08bc 637b 97bd 9132 4e3c 6d9d fe3c
00000250: 5436 c9bd 03bd b7bd 776d cd3b 7c71 4f3d
00000260: f885 bb3d f8d5 273e cdde ab3d 2514 16be
00000270: 484c 9b3d 2b31 0bbe 9e96 cabd 3044 3bbe
00000280: 4c37 013e baf6 ed3d a34a 27be 62b7 9c3c
00000290: 52df 5d3d bdeb 363d 8b73 aa3b d1de 383e
000002a0: 6925 863d 1d87 d73d d51e 9cbd 09b5 23be
000002b0: 308a c83d 7ed9 5f3e 186b 33bd 0dc6 ebbd
000002c0: 96f3 32bd 4e9b 593d e1b7 5e3e 649b d63d
000002d0: f7b4 c43d 4b00 75be 40a3 0fbe d607 a83b
000002e0: 4ccd 69be c456 57be 4b46 2d3d 7a4a 62bd
000002f0: 520b 37bd bd2f 1abd 5518 433e 2af9 e73b
00000300: f5fe 81be bad2 11be 4249 2dbe 62d2 88bd
00000310: cf56 21be ec7f 8c3d 1d88 3fbe 1630 44be
00000320: 19aa a2bd 267d 223e 11af 8c3d 5f32 1bbe
00000330: be90 febc 5580 933d 3143 5fbd d003 4d3e
00000340: bf77 8e3d f7a5 063e 847e 1d3d 34dc 6e3d
00000350: 5aaa d6bc b478 11be 4230 aa3c dcce 73bc
00000360: 0b8f 4cbe 91f3 9fbd b63e cbbd 9975 cbbd
00000370: 8738 dbbd b4b9 86bd 2e05 dfbc 71d6 45be
00000380: 523d a1bd 46c5 06be cc05 123d d6ec c43d
00000390: 7707 85bd 5c9e 063d 112b 843d b3d3 1c3e
000003a0: e4a9 213c 1ec8 bc3d 9d1b 043e 2edf e13c
000003b0: 36bb d2bd 09fa f1bd bb98 2bbe 7f7c 17be
000003c0: 54c2 ab3c fbac a03d 5699 08bd e3b4 46be
000003d0: 682d 1bbd a09b b1bd 9f6a 0bbd 7b2c 3ebd
000003e0: 9983 ea3d 6fe4 b2bd e801 abbd fe0d c93c
000003f0: 2cd9 0ebe 3060 21bd 9e5c 60bc a9ce 21bd

TransformerBlocks.0.attention.tokeys.bias f4 [12]
0.00057099696 0.086145416 -0.05509621 -0.1498073 0.09714716 -0.11447715 0.27448255 0.24984244
0.09283867 0.18917546 -0.098817654 0.043546543
00000000: f5ae 153a 026d b03d 90ac 61bd 1667 19be
00000010: 17f5 c63d ff72 eabd fa88 8c3e b2d6 7f3e
00000020: 3322 be3d 36b7 413e e960 cabd dc5d 323d

TransformerBlocks.0.attention.tovalues.weight f4 [12, 4, 1]
-0.5008993 0.1405989 0.15955877 0.12903087 -0.44914675 -0.20232813 0.28695908 0.31408647
0.44244382 0.31668478 -0.008592453 -0.13831015 -0.052681353 -0.3558132 -0.3170572 0.10941449
0.40655744 -0.32994246 -0.20421822 0.09979749 0.20241201 0.111736864 -0.28149718 0.14375345
-0.49466273 -0.06563703 -0.13335514 -0.03742453 -0.5335326 0.34960783 -0.43745193 0.20426613
-0.44965777 -0.23814565 0.38523751 0.105874665 0.3046172 0.27094883 0.2865614 -0.052582636
0.21390502 0.17824252 0.10530098 -0.49491987 -0.5638252 -0.3967682 0.23720421 -0.27397457
00000000: f03a 00bf 28f9 0f3e 6063 233e ab20 043e
00000010: 90f6 e5be 1b2f 4fbe 4dec 923e f1cf a03e
00000020: ff87 e23e 8224 a23e 5cc7 0cbc 2da1 0dbe
00000030: 67c8 57bd 262d b6be 5255 a2be b414 e03d
00000040: 4c28 d03e 38ee a8be 951e 51be a062 cc3d
00000050: 1845 4f3e 4cd6 e43d 6620 90be 1b34 133e
00000060: 6f44 fdbe b56c 86bd 408e 08be 774a 19bd
00000070: 9895 08bf ccff b23e b3f9 dfbe 242b 513e
00000080: 8b39 e6be 74dc 73be da3d c53e d1d4 d83d
00000090: c9f6 9b3e ceb9 8a3e 2db8 923e e460 57bd
000000a0: eb09 5b3e 3585 363e 0aa8 d73d 2366 fdbe
000000b0: d956 10bf 3425 cbbe a9e5 723e 6546 8cbe

TransformerBlocks.0.attention.unifyheads.weight f4 [4, 12]
0.18892343 -0.18634677 -0.05319553 -0.1648411 0.2651591 -0.085836455 -0.0058273906 -0.24595776
-0.039972614 0.09631381 -0.03501248 -0.0952072 -0.10942053 -0.11550669 -0.40258557 0.06891951
-0.10609652 0.2346206 -0.29441094 -0.26787093 -0.11088578 -0.10130423 -0.2454162 -0.026095903
0.004929796 -0.07472051 0.10971698 -0.17070627 -0.012047874 -0.07573083 0.006962988 0.20897101
0.13583376 0.0034680727 0.007565136 -0.09943134 0.030500328 -0.2659918 0.017013099 0.2975566
-0.119807705 0.05489056 -0.1098591 0.29545334 -0.26581168 0.11536359 0.37032306 0.20801647
00000000: 2575 413e b0d1 3ebe 8ee3 59bd 1bcc 28be
00000010: efc2 873e 06cb afbd b2f3 bebb 5adc 7bbe
00000020: 53ba 23bd 2d40 c53d 3f69 0fbd fefb c2bd
00000030: df17 e0bd c68e ecbd b21f cebe ac25 8d3d
00000040: 2249 d9bd 6240 703e 08bd 96be 6126 89be
00000050: 1518 e3bd 9878 cfbd 624e 7bbe 13c7 d5bc
00000060: 208a a13b 1107 99bd 4cb3 e03d a0cd 2ebe
00000070: 7264 45bc c418 9bbd c729 e43b 7ffc 553e
00000080: 0118 0b3e 9b48 633b f6e4 f73b a9a2 cbbd
00000090: d3db f93c 1430 88be 0e5f 8b3c 5759 983e
000000a0: be5d f5bd edd4 603d cffd e0bd a945 973e
000000b0: 7818 88be bf43 ec3d fc9a bd3e 4502 553e

TransformerBlocks.0.attention.unifyheads.bias f4 [4]
0.38197517 0.36653405 -0.3508878 -0.2952124
00000000: 4092 c33e 5aaa bb3e 91a7 b3be 1426 97be

TransformerBlocks.0.norm1.weight f4 [4]
0.94483054 0.8978532 1.0541341 1.0330411
00000000: 6ae0 713f b5d9 653f deed 863f b13a 843f

TransformerBlocks.0.norm1.bias f4 [4]
0.10954004 0.13298622 -0.11591527 -0.15875529
00000000: 8756 e03d 8a2d 083e fc64 edbd bf90 22be

TransformerBlocks.0.norm2.weight f4 [4]
0.9290974 1.060565 1.0831476 1.0380764
00000000: 54d9 6d3f 98c0 873f 95a4 8a3f b0df 843f

TransformerBlocks.0.norm2.bias f4 [4]
0.08886461 0.12719792 -0.114726275 -0.12593314
00000000: a6fe b53d 2c40 023e 9cf5 eabd 9ef4 00be

TransformerBlocks.0.feedforward.0.weight f4 [16, 4]
0.49716854 -0.34169665 -0.12970626 -0.11502075 0.396338 -0.5940066 -0.28184044 -0.37980315
0.025366178 0.5236097 0.586437 -0.30003586 0.20103113 0.135363 -0.5413613 -0.081989974
-0.510814 -0.3823979 0.15587436 0.07512611 -0.27815208 -0.17032282 -0.11075223 -0.48941824
0.14501706 0.2510004 0.2713228 0.36345744 0.022672387 0.3271837 0.21373166 0.023621077
0.33985406 0.032284584 0.12787738 -0.3038135 -0.4875493 0.30016997 -0.2876166 0.44792163
-0.3134039 0.35041288 0.029398303 -0.22819361 0.39369833 0.29883865 -0.39311984 -0.16301847
-0.033601575 0.26471975 -0.03028725 0.15523082 0.14637828 0.2671546 -0.25172174 -0.22523718
-0.3485988 -0.35424656 0.5555847 -0.01763882 0.6497142 -0.11901654 0.122451074 0.13747042
00000000: e08c fe3e ddf2 aebe b8d1 04be 0090 ebbd
00000010: d0ec ca3e d110 18bf 644d 90be 8f75 c2be
00000020: bbcc cf3c 490b 063f bc20 163f 4d9e 99be
00000030: 1bdb 4d3e 999c 0a3e a796 0abf 5cea a7bd
00000040: b5c4 02bf a8c9 c3be 879d 1f3e b8db 993d
00000050: f369 8ebe 1b69 2ebe 11d2 e2bd 0795 fabe
00000060: 5a7f 143e 2083 803e d2ea 8a3e 1817 ba3e
00000070: 71bb b93c 9f84 a73e 79dc 5a3e fd80 c13c
00000080: 5a01 ae3e d73c 043d 4af2 023e 718d 9bbe
00000090: 10a0 f9be e1af 993e 7c42 93be fc55 e53e
000000a0: 7a76 a0be 5169 b33e b6d4 f03c 96ab 69be
000000b0: d492 c93e 6101 993e 0147 c9be 50ee 26be
000000c0: cea1 09bd 5989 873e f81c f8bc d4f4 1e3e
000000d0: 30e4 153e 7dc8 883e ace1 80be 93a4 66be
000000e0: 8b7b b2be ce5f b5be cd3a 0e3f 497f 90bc
000000f0: ab53 263f f2be f3bd a1c7 fa3d 0cc5 0c3e

TransformerBlocks.0.feedforward.0.bias f4 [16]
0.27319205 0.19285439 -0.27888075 0.11301471 0.21076693 0.24369654 -0.07958803 -0.44470918
0.4855523 0.16377942 0.37570718 -0.17280984 0.25599024 0.35326716 0.17334916 0.037015088
00000000: d4df 8b3e 9f7b 453e 75c9 8ebe 4274 e73d
00000010: 49d3 573e 968b 793e 0dff a2bd ecb0 e3be
00000020: 509a f83e cbb5 273e b15c c03e 10f5 30be
00000030: 2711 833e 6fdf b43e 7182 313e 229d 173d

TransformerBlocks.0.feedforward.2.weight f4 [4, 16]
-0.16441865 -0.35154173 0.035669684 -0.071759604 0.33657986 -0.103439584 0.027775872 0.041472293
-0.14835587 0.26898664 -0.11541293 -0.011833571 0.26787975 0.15338282 0.28121912 -0.2124263
0.35311633 0.28240022 -0.004932136 0.015734002 0.15502925 0.3154957 0.14912142 0.22223866
0.22835809 0.040892046 -0.17253174 0.22483991 -0.2229127 -0.004285102 -0.13540363 0.30686307
-0.27745646 -0.075557575 -0.29620814 -0.18030378 -0.501725 0.087578714 -0.19659558 0.20652276
-0.32822365 0.16395682 -0.087827295 -0.2595486 0.03177429 -0.047572214 0.12182678 -0.20439291
0.0045787124 0.24550629 -0.13424197 -0.2663225 -0.36329505 0.029720435 0.09593695 -0.09715905
-0.30931166 -0.3157332 -0.09929709 -0.2581523 -0.3079855 -0.26451862 -0.3837698 -0.028956844
00000000: 5d5d 28be 47fd b3be 601a 123d b3f6 92bd
00000010: 3254 ac3e 22d8 d3bd 3a8a e33c dade 293d
00000020: 9aea 17be 9eb8 893e 9d5d ecbd 98e1 41bc
00000030: 8927 893e 6310 1d3e f4fb 8f3e 4886 59be
00000040: aacb b43e c396 903e c19d a1bb 98e4 803c
00000050: fdbf 1e3e a788 a13e 49b3 183e 8892 633e
00000060: b4d6 693e 6b7e 273d 29ac 30be 6f3c 663e
00000070: 3a43 64be 0a6a 8cbb 40a7 0abe 281d 9d3e
00000080: c60e 8ebe eebd 9abd 98a8 97be 8ea1 38be
00000090: 0d71 00bf 785c b33d 5a50 49be b47a 533e
000000a0: ee0c a8be 4ce4 273e ccde b3bd 8ee3 84be
000000b0: c225 023d 15db 42bd 5280 f93d 604c 51be
000000c0: 0609 963b 0066 7b3e ba76 09be 6c5b 88be
000000d0: cf01 babe 4578 f33c 977a c43d 53fb c6bd
000000e0: 195e 9ebe c8a7 a1be 465c cbbd 8a2c 84be
000000f0: 47b0 9dbe fc6e 87be 7a7d c4be e736 edbc

TransformerBlocks.0.feedforward.2.bias f4 [4]
0.25174534 -0.047324315 -0.3153727 -0.18620324
00000000: c4e4 803e 24d7 41bd 8878 a1be 10ac 3ebe

TransformerBlocks.1.attention.toqueries.weight f4 [12, 4, 6]
-0.0705638 -0.0025084894 -0.02807842 -0.007122792 -0.21632715 -0.24032684 0.07628913 -0.0028886108
-0.1747162 -0.026379766 -0.15524751 -0.016022634 -0.027340678 0.271823 0.2500307 0.26432475
0.2222979 0.2897349 -0.07923023 0.12832244 0.2428664 0.19124667 0.14269373 0.022945404
-0.22278078 -0.12922503 -0.16249332 -0.13632011 -0.11222329 -0.15034328 -0.25849676 -0.09891443
-0.11581221 -0.043378495 0.07095448 0.060285553 -0.116682656 0.11247724 0.115745984 0.13856226
0.27571657 -0.007734167 0.23640136 0.03229527 0.15068206 0.0043850737 -0.122657485 -0.032599054
-0.020403137 0.030960951 -0.15944476 0.019214071 0.08243048 0.0051111574 -0.13916661 -0.22571623
0.049553093 -0.008093752 -0.24381629 0.06102494 -0.075483754 -0.032744747 0.043778986 -0.089646004
-0.10160053 0.16707821 0.0356803 0.17595248 0.21424183 0.21631262 0.04697543 0.011270417
-0.049327355 0.005950552 -0.19528294 -0.11905969 -0.18571074 -0.26155367 -0.09983416 -0.023663048
-0.17614241 -0.124864556 -0.20685552 0.07318918 -0.059110917 0.048718117 -0.015622589 0.002073531
-0.11084053 -0.017565047 0.15033631 0.1801022 -0.01381986 0.18643574 0.11809908 0.1980988
0.08075357 -0.08952026 -0.07060154 -0.15805407 -0.18600008 -0.06367859 -0.03255063 0.080508724
0.056133736 -0.23563652 -0.20534822 -0.24780582 0.12526603 0.07140202 0.27881858 0.15431331
0.008736226 0.113012664 -0.0385462 0.039483394 0.070928335 0.25796905 0.064761035 -0.006219571
-0.14010674 -0.11861563 -0.16402335 -0.284384 -0.18611869 -0.29687247 -0.104242355 -0.022744853
0.045381896 -0.023220712 -0.2692145 -0.0064619817 0.06642031 0.01588675 0.15364599 0.26416767
0.21714619 -0.033224408 0.07547533 0.18976428 -0.067825496 -0.095074914 0.074737534 -0.02882702
0.09332882 -0.028179301 -0.034720726 0.06587478 -0.23114546 -0.12413878 -0.08063561 -0.048626527
0.18054357 -0.15470628 -0.1642617 -0.16340783 0.06810477 -0.039536227 0.061582543 0.23424298
0.17087008 -0.017789884 0.1633222 -0.13840722 0.15665658 0.055674683 0.18453263 -0.21037048
-0.13544944 -0.18571495 -0.1802138 -0.104203895 -0.06699646 -0.017356982 -0.02378432 0.14385456
0.083654106 0.061040767 -0.059725244 0.07012383 0.040166844 0.2304779 0.11231856 0.005897064
0.08907691 0.15196347 0.10265448 0.1544612 -0.077399 -0.006851569 0.17246503 -0.10407168
0.03880426 -0.057174798 -0.2059644 -0.21820518 0.09255364 -0.30067214 0.015404625 0.018955933
-0.062695876 -0.261759 0.117096715 -0.008669442 0.25809854 0.19853112 0.12376625 0.09709611
0.10893145 0.0099127 0.1533638 -0.1211553 0.19152379 0.15956458 0.09920226 0.060774654
0.1179533 0.04418381 0.27606773 -0.11273437 0.0934106 0.12496697 0.15843593 0.20954163
0.12024479 -0.0665006 0.21419032 0.18869919 -0.21200208 -0.22334076 -0.1957428 -0.09277143
-0.12755989 -0.0684941 -0.001719663 0.20838417 -0.0074934075 -0.14553212 0.084441505 -0.14104362
0.21153164 0.11590813 0.088904746 0.1440563 -0.038368315 0.2582244 0.12463137 0.2143239
-0.019139934 0.044750225 -0.104176916 0.21776392 -0.0818899 -0.061215363 -0.1599244 0.04747191
00000000: c183 90bd 7865 24bb b704 e6bc 4f66 e9bb
00000010: dd84 5dbe 3d18 76be 7a3d 9c3d d94e 3dbb
00000020: cee8 32be 611a d8bc 34f9 1ebe e641 83bc
00000030: 8ff9 dfbc 622c 8b3e 0604 803e 9355 873e
00000040: 10a2 633e 2258 943e 7543 a2bd f566 033e
00000050: f8b1 783e 2bd6 433e 4e1e 123e 00f8 bb3c
00000060: a520 64be 9153 04be a664 26be 8097 0bbe
00000070: 53d5 e5bd 97f3 19be b059 84be a693 cabd
00000080: f42e edbd a6ad 31bd 9550 913d fced 763d
00000090: 51f7 eebd 785a e63d 3b0c ed3d 44e3 0d3e
000000a0: b92a 8d3e e56e fdbb 3313 723e 0c48 043d
000000b0: 664c 1a3e aab0 8f3b d933 fbbd 9686 05bd
000000c0: 7b24 a7bc d2a1 fd3c 7d45 23be d466 9d3c
000000d0: 50d1 a83d 7f7b a73b b181 0ebe 2822 67be
000000e0: 2ff8 4a3d a89b 04bc faaa 79be 4af5 793d
000000f0: 3a97 9abd 5b1f 06bd 9851 333d 5398 b7bd
00000100: f013 d0bd 8d16 2b3e 8225 123d e32c 343e
00000110: 3662 5b3e 0e81 5d3e 4f69 403d 8ea7 383c
00000120: 7b0b 4abd d9fc c23b 40f8 47be 91d5 f3bd
00000130: f52a 3ebe 5dea 85be da75 ccbd 02d9 c1bc
00000140: ad5e 34be fdb8 ffbd efd1 53be 35e4 953d
00000150: 4a1e 72bd a68c 473d e3f5 7fbc 14e4 073b
00000160: 5c00 e3bd 93e4 8fbc c3f1 193e b66c 383e
00000170: b26c 62bc 03e9 3e3e eedd f13d 69da 4a3e
00000180: 2162 a53d 6656 b7bd 8a97 90bd edd8 21be
00000190: ce76 3ebe ec69 82bd cf53 05bd c2e1 a43d
000001a0: 7dec 653d b34a 71be ce46 52be cfc0 7dbe
000001b0: bd45 003e 393b 923d 4fc1 8e3e 4f04 1e3e
000001c0: 6322 0f3c 2f73 e73d 9fe2 1dbd 57b9 213d
000001d0: e042 913d 8514 843e 6fa1 843d 8bcd cbbb
000001e0: 2478 0fbe c0ec f2bd bdf5 27be c89a 91be
000001f0: e695 3ebe abff 97be 047d d5bd 6a53 babc
00000200: 5ee2 393d 5d39 bebc 7cd6 89be 08bf d3bb
00000210: 5f07 883d ee24 823c 6055 1d3e fc40 873e
00000220: 925b 5e3e 5116 08bd cf92 9a3d 9151 423e
00000230: 18e8 8abd a3b6 c2bd fe0f 993d a526 ecbc
00000240: 2e23 bf3d 47d8 e6bc 5237 0ebd 5be9 863d
00000250: 65b1 6cbe 793c febd 4824 a5bd 9c2c 47bd
00000260: 6ae0 383e 536b 1ebe 3834 28be 6254 27be
00000270: 837a 8b3d bdf0 21bd fa3d 7c3d 64dd 6f3e
00000280: 91f8 2e3e 17bc 91bc ef3d 273e 9fba 0dbe
00000290: 956a 203e 230b 643d 1ff6 3c3e 5c6b 57be
000002a0: 42b3 0abe 0f2c 3ebe f789 38be da68 d5bd
000002b0: 7135 89bd 3b30 8ebc 56d7 c2bc 9c4e 133e
000002c0: d852 ab3d e205 7a3d 75a2 74bd 159d 8f3d
000002d0: fd85 243d 6602 6c3e 4607 e63d 293c c13b
000002e0: f46d b63d 509c 1b3e 833c d23d 142b 1e3e
000002f0: 5e83 9ebd 2083 e0bb ac9a 303e 8823 d5bd
00000300: 37f1 1e3d 1f30 6abd 55e8 52be 2e71 5fbe
00000310: c38c bd3d b3f1 99be ae63 7c3c 7949 9b3c
00000320: b266 80bd 4705 86be 67d0 ef3d 460a 0ebc
00000330: 7e25 843e be4b 4b3e 2979 fd3d 53da c63d
00000340: 7417 df3d e168 223c 660b 1d3e 4520 f8bd
00000350: d01e 443e e664 233e 8e2a cb3d d8ee 783d
00000360: 8091 f13d 15fa 343d c058 8d3e 47e1 e6bd
00000370: 0f4e bf3d afee ff3d 073d 223e 1592 563e
00000380: e742 f63d 7731 88bd b554 5b3e 5c3a 413e
00000390: 1317 59be 71b3 64be cd70 48be f3fe bdbd
000003a0: 0f9f 02be a246 8cbd 5166 e1ba a962 553e
000003b0: 428b f5bb 5f06 15be abef ac3d bd6d 10be
000003c0: c09b 583e 3e61 ed3d b113 b63d 7f83 133e
000003d0: 1828 1dbd fd35 843e bb3e ff3d b977 5b3e
000003e0: 5acb 9cbc 034c 373d b55a d5bd 81fd 5e3e
000003f0: e4b5 a7bd f6bc 7abd 39c3 23be e871 423d

TransformerBlocks.1.attention.toqueries.bias f4 [12]
-0.2067278 -0.12031408 -0.029247295 -0.26600832 -0.09517061 -0.08831197 -0.24049002 0.073525175
0.07975143 -0.089556456 0.014177302 0.026674788
00000000: 74b0 53be 3a67 f6bd 0698 efbc 3e32 88be
00000010: cfe8 c2bd e8dc b4bd 0443 76be 5e94 963d
00000020: b854 a33d 6069 b7bd ea47 683c 1685 da3c

TransformerBlocks.1.attention.tokeys.weight f4 [12, 4, 6]
-0.14318345 0.0388369 -0.1731967 -0.27042037 0.08564795 -0.030426068 0.07264189 0.10348334
-0.2821412 -0.08701011 -0.09367704 -0.22168954 -0.042682577 -0.035551082 0.18123177 -0.050689455
0.1631022 0.2596237 -0.12187129 -0.012401595 -0.044883892 0.10533196 -0.023916174 -0.06981844
0.17290966 0.13974583 0.22108583 0.22803049 0.028247613 -0.108302966 0.19788076 0.045397654
0.21430302 0.18068406 0.21105261 -0.1478426 0.04639517 0.12280399 -0.11410601 0.11952365
-0.14694975 -0.24368602 0.1312455 0.12450442 -0.20482557 -0.14156552 0.06755666 -0.0029250893
0.13966009 -0.09195197 -0.039333474 0.11355799 0.22295587 0.26573536 0.09216008 0.16496903
0.15266517 0.0775057 -0.093010604 0.14575142 0.089775085 -0.23097676 0.019480098 -0.16288078
-0.026675116 0.02904135 -0.051524106 -0.10305146 -0.070829675 0.072483264 -0.17819549 0.08148933
-0.20264696 -0.19740297 0.022337236 -0.07673188 0.033636857 -0.17433731 -0.1564647 0.06463659
-0.2390804 -0.08385308 -0.11703081 -0.17144163 -0.06312312 0.05928385 0.120649956 0.14517064
-0.002775434 0.19565998 0.07749859 0.1421697 0.25636548 0.17248584 0.19650525 0.081702456
-0.06036966 -0.0048143314 0.07158588 0.25377706 0.18012206 0.118169345 0.07521083 0.23063199
0.03242767 0.0985448 0.02447592 -0.08484729 -0.2448608 -0.02136388 0.022404166 -0.028842643
0.112240374 0.094318956 0.06323216 -0.18115988 0.044473607 0.12580326 0.036666606 0.10650853
0.17121954 -0.079858266 -0.088227324 0.27810687 0.077528924 -0.101360284 0.17963676 -0.15490828
-0.14001465 0.07264866 0.10298685 0.08285514 -0.124154635 -0.07409493 -0.17218947 -0.14775619
-0.25353128 -0.0062711104 0.119608335 -0.121193014 -0.16252 0.07942123 -0.060549058 0.04212898
-0.26722622 -0.2844107 0.07442379 -0.114752784 0.078698084 0.029239975 -0.26350912 -0.15588857
0.04833244 0.15236992 -0.021320865 -0.28367838 0.058746062 0.18270795 0.23097543 -0.066177845
0.28211716 0.04990145 0.18357624 0.2681467 0.03370485 -0.007118685 0.07299594 0.14924683
0.037625387 -0.10030736 0.045442928 -0.07168463 0.03747242 0.21951902 0.06185347 0.0332969
0.12096008 -0.112654045 -0.12315719 0.26398417 0.07917002 -0.15656975 -0.049262557 -0.076763205
-0.26314923 0.096237026 0.12849681 -0.18185797 0.07610952 -0.06539285 0.14793465 0.022167824
-0.052357897 0.033590414 0.23836207 0.14860222 0.1326299 0.13746056 -0.058517776 0.0030070103
0.1918587 0.062119324 0.06751482 -0.07832871 -0.23147927 -0.022021327 -0.033126388 0.01696651
-0.14395562 0.017600076 0.17706457 0.019482333 -0.021686696 0.025020162 -0.021204296 -0.061593987
0.1108765 -0.042881336 0.28410405 0.03977483 -0.054077316 0.20573144 0.09278573 -0.010859045
0.21653654 0.010188217 0.24980618 0.11361537 0.094550505 -0.2488934 -0.21696445 -0.23943084
0.07333579 -0.005463539 -0.044032045 -0.1621846 -0.03192881 -0.21393597 0.06377757 -0.082472585
-0.15404193 -0.031158915 0.041420553 0.05540127 -0.22972083 0.011580162 -0.07300632 -0.08298179
0.09920934 0.056413244 -0.19574144 -0.0932759 0.2376149 0.10835412 0.20083658 0.068808675
00000000: af9e 12be 7113 1f3d 7a5a 31be 8a74 8abe
00000010: 3168 af3d 1740 f9bc 45c5 943d 13ef d33d
00000020: d074 90be 5b32 b2bd bfd9 bfbd 9502 63be
00000030: edd3 2ebd 039e 11bd d294 393e bf9f 4fbd
00000040: 4304 273e 66ed 843e a897 f9bd 0f30 4bbc
00000050: 2cd8 37bd 48b8 d73d daeb c3bc f8fc 8ebd
00000060: 3b0f 313e 8819 0f3e 5364 623e d380 693e
00000070: 8a67 e73c f2cd ddbd 41a1 4a3e e4f2 393d
00000080: 4072 5b3e 3e05 393e 2d1e 583e 0d64 17be
00000090: dd08 3e3d a980 fb3d 69b0 e9bd d1c8 f43d
000000a0: ff79 16be d488 79be 3865 063e 2cfc fe3d
000000b0: cbbd 51be 8df6 10be 255b 8a3d dbb2 3fbb
000000c0: 0e03 0f3e 5051 bcbd 231c 21bd 1791 e83d
000000d0: 8b4e 643e 770e 883e 6dbe bc3d a4ed 283e
000000e0: 4254 1c3e 4fbb 9e3d 587c bebd dc3f 153e
000000f0: 00dc b73d 2c85 6cbe ba94 9f3c 38ca 26be
00000100: c685 dabc 20e8 ed3c f10a 53bd a50c d3bd
00000110: 260f 91bd 1b72 943d e178 36be e1e3 a63d
00000120: af82 4fbe 0124 4abe 94fc b63c 9b25 9dbd
00000130: cdc6 093d 7b85 32be 4838 20be 3060 843d
00000140: 7ed1 74be 2abb abbd d9ad efbd 658e 2fbe
00000150: b246 81bd 9fd3 723d 5317 f73d 9da7 143e
00000160: 0ee4 35bb 175b 483e 95b7 9e3d ef94 113e
00000170: 5642 833e 21a0 303e ac38 493e 9e53 a73d
00000180: 2d46 77bd 8ac1 9dbb 9e9b 923d 11ef 813e
00000190: eb71 383e c502 f23d 2308 9a3d cb2a 6c3e
000001a0: e0d2 043d dbd1 c93d b981 c83c 6ac4 adbd
000001b0: cabc 7abe 4e03 afbc f188 b73c 6847 ecbc
000001c0: 48de e53d 4c2a c13d dd7f 813d fa81 39be
000001d0: f529 363d 92d2 003e b92f 163d 2521 da3d
000001e0: 2d54 2f3e bb8c a3bd 87b0 b4bd 0664 8e3e
000001f0: 7cc7 9e3d fb95 cfbd b3f2 373e 47a0 1ebe
00000200: 0060 0fbe d2c8 943d c5ea d23d f5af a93d
00000210: c944 febd 15bf 97bd 7052 30be 664d 17be
00000220: dace 81be e37d cdbb 37f5 f43d 0b34 f8bd
00000230: a56b 26be 99a7 a23d 4a02 78bd 708f 2c3d
00000240: e0d1 88be 479e 91be 806b 983d 8203 ebbd
00000250: 762c a13d ac88 ef3c abea 86be 41a1 1fbe
00000260: 3df8 453d dc06 1c3e 18a9 aebc 4b3e 91be
00000270: b69f 703d cb17 3b3e d384 6c3e 4088 87bd
00000280: a971 903e 7665 4c3d 69fb 3b3e 864a 893e
00000290: 190e 0a3d dc43 e9bb e57e 953d 29d4 183e
000002a0: 141d 1a3d f26d cdbd 5d22 3a3d 64cf 92bd
000002b0: ae7c 193d 98c9 603e 105a 7d3d 5562 083d
000002c0: ebb9 f73d 2ab7 e6bd d639 fcbd ef28 873e
000002d0: e423 a23d d253 20be 89c7 49bd 0736 9dbd
000002e0: 7fbb 86be eb17 c53d ab94 033e fa38 3abe
000002f0: 4fdf 9b3d b0ec 85bd 2e7c 173e 4c99 b53c
00000300: 3c75 56bd 1a96 093d 3015 743e 2e2b 183e
00000310: 22d0 073e 76c2 0c3e 56b0 6fbd 4311 453b
00000320: 9b76 443e d570 7e3d 3645 8a3d cd6a a0bd
00000330: e708 6dbe 1266 b4bc 89af 07bd 5afd 8a3c
00000340: 1a69 13be 092e 903c 6a50 353e 6a99 9f3c
00000350: 4ca8 b1bc 15f7 cc3c a2b4 adbc fa49 7cbd
00000360: 3813 e33d 57a4 2fbd 1676 913e efea 223d
00000370: 2d80 5dbd 43ab 523e 7206 be3d 23ea 31bc
00000380: c1bb 5d3e 7bec 263c 31cd 7f3e 2daf e83d
00000390: b2a3 c13d e9dd 7ebe ee2b 5ebe 5c2d 75be
000003a0: 1331 963d 7d07 b3bb f25a 34bd b813 26be
000003b0: c9c7 02bd 0812 5bbe d19d 823d 63e7 a8bd
000003c0: 2bbd 1dbe fb40 ffbc 99a8 293d 71ec 623d
000003d0: f03b 6bbe b8ba 3d3c 5684 95bd 5bf2 a9bd
000003e0: 442e cb3d 9311 673d 7270 48be 6f07 bfbd
000003f0: 5251 733e c4e8 dd3d 1ba8 4d3e 90eb 8c3d

TransformerBlocks.1.attention.tokeys.bias f4 [12]
-0.17407703 -0.03211042 -0.07616973 -0.034252696 0.06649527 0.081978805 0.038274836 0.021765586
0.11984921 0.23866354 -0.27951196 -0.07218447
00000000: 4041 32be 3786 03bd e0fe 9bbd 8e4c 0cbd
00000010: ac2e 883d 81e4 a73d 13c6 1c3d be4d b23c
00000020: 8173 f53d 3764 743e 311c 8fbe 74d5 93bd

TransformerBlocks.1.attention.tovalues.weight f4 [12, 4, 1]
-0.6070673 0.20991172 0.34135798 0.5485392 -0.09766968 -0.5183148 -0.36755615 -0.33592603
0.21753335 -0.14633419 -0.20307249 -0.30082273 0.28994563 0.645136 -0.58453155 -0.20690316
0.41540527 -0.39330685 0.36374477 0.21810544 0.21840835 0.13130918 0.31226757 0.1786364
-0.5397629 0.15994146 -0.03230384 -0.18182693 0.4376773 0.3705068 0.39641193 -0.1378313
-0.38535625 -0.016834281 0.44140562 0.21327291 0.27222413 0.57561857 -0.61022496 0.096195936
-0.087694146 0.44880727 0.031625595 -0.22708708 -0.21654364 0.16071944 -0.2534697 -0.21187168
00000000: c368 1bbf 19f3 563e 79c6 ae3e 116d 0c3f
00000010: 0b07 c8bd 47b0 04bf 5230 bcbe 7ffe abbe
00000020: 10c1 5e3e a1d8 15be 3cf2 4fbe 7005 9abe
00000030: c173 943e a227 253f dca3 15bf 6cde 53be
00000040: 00b0 d43e 845f c9be c13c ba3e 0857 5f3e
00000050: 70a6 5f3e ea75 063e 89e1 9f3e 76ec 363e
00000060: e72d 0abf b2c7 233e 0851 04bd d730 3abe
00000070: 3d17 e03e 11b3 bd3e 81f6 ca3e a623 0dbe
00000080: 6a4d c5be 0ce8 89bc ebff e13e 3764 5a3e
00000090: f660 8b3e bd5b 133f b437 1cbf 6002 c53d
000000a0: fd98 b3bd 11ca e53e d789 013d 8489 68be
000000b0: 9ebd 5dbe a393 243e c8c6 81be e4f4 58be

TransformerBlocks.1.attention.unifyheads.weight f4 [4, 12]
0.10004744 -0.032284077 0.08808007 -0.04828662 0.17092323 0.004279329 -0.114471845 -0.06141266
0.28488857 -0.14103954 0.21533534 0.025690857 -0.46147096 0.23850271 -0.30583754 -0.08831813
-0.22809942 0.28922284 -0.0739925 0.006782794 -0.3140212 0.42233583 -0.21176106 0.35677046
0.11353483 0.10277653 -0.26107797 0.07202381 0.07116919 -0.32068485 0.036584295 -0.16864246
-0.12213079 0.0017133167 0.08563056 -0.3729721 0.2821344 0.095846415 -0.14983653 -0.32006276
0.0999593 -0.09532615 -0.26688114 -0.053291913 -0.030340679 -0.28127652 0.008153173 -0.25150496
00000000: ace5 cc3d 4f3c 04bd 5363 b43d 31c8 45bd
00000010: 8006 2f3e 9d39 8c3b 3770 eabd d78b 7bbd
00000020: eadc 913e ab6c 10be de80 5c3e a275 d23c
00000030: ec45 ecbe 0e3a 743e bd96 9cbe 23e0 b4bd
00000040: e592 69be 0415 943e 6189 97bd 3342 de3b
00000050: 63c7 a0be 673c d83e e4d7 58be 9eaa b63e
00000060: f384 e83d 807c d23d 03ac 85be 3881 933d
00000070: 27c1 913d ce30 a4be 6ad9 153d 9cb0 2cbe
00000080: b51f fabd 5e91 e03a 135f af3d 33f6 bebe
00000090: ec73 903e 204b c43d bf6e 19be 44df a3be
000000a0: 76b7 cc3d 5b3a c3bd a5a4 88be 9f48 5abd
000000b0: 048d f8bc 7a03 90be e394 053c 42c5 80be

TransformerBlocks.1.attention.unifyheads.bias f4 [4]
0.15873414 0.02038457 -0.09918569 -0.086789005
00000000: 348b 223e 8bfd a63c de21 cbbd 6fbe b1bd

TransformerBlocks.1.norm1.weight f4 [4]
0.91435015 1.1325933 1.0367155 1.0156735
00000000: da12 6a3f d1f8 903f 18b3 843f 9701 823f

TransformerBlocks.1.norm1.bias f4 [4]
-0.01553534 0.11311992 -0.08008166 -0.032601487
00000000: f087 7ebc 6bab e73d da01 a4bd 2389 05bd

TransformerBlocks.1.norm2.weight f4 [4]
0.91167074 1.1359551 1.0492427 1.0047432
00000000: 4163 693f fa66 913f 964d 863f 6d9b 803f

TransformerBlocks.1.norm2.bias f4 [4]
-0.033991937 0.13090114 -0.06955301 0.019577723
00000000: 213b 0bbd f30a 063e cf71 8ebd 7661 a03c

TransformerBlocks.1.feedforward.0.weight f4 [16, 4]
0.060381684 -0.45292193 0.20171267 0.45196286 0.022818761 0.2102493 0.3258802 -0.047894787
-0.31549886 -0.06658368 0.37604582 -0.16334945 0.3014162 -0.007746776 0.3925638 0.07841699
0.6229504 0.5434735 -0.47843015 -0.06745568 0.12809965 0.057207435 0.3972021 0.32615706
-0.06623394 0.026663253 -0.4225302 0.10519824 -0.56429183 0.27187183 -0.1688124 0.09416935
-0.23939691 0.40164685 -0.33117226 -0.07700915 -0.44514397 -0.412432 -0.38873613 0.0012231012
0.16390328 -0.48050365 0.15324421 0.47988087 0.02193241 0.53351325 0.16933675 0.30424058
-0.4328331 -0.370837 -0.1695713 0.34005755 -0.5542612 0.09775009 0.36532366 -0.17516072
0.3959851 0.023577586 0.15775074 -0.2654017 0.49392468 0.28881294 -0.2594265 -0.34820616
00000000: c952 773d 62e5 e7be c48d 4e3e ad67 e73e
00000010: 69ee ba3c 984b 573e c5d9 a63e 532d 44bd
00000020: 1189 a1be 065d 88bd 1489 c03e 1445 27be
00000030: 3953 9a3e abd8 fdbb 1ffe c83e 1699 a03d
00000040: ad79 1f3f 1421 0b3f ccf4 f4be 3426 8abd
00000050: 8e2c 033e 5852 6a3d 135e cb3e 0ffe a63e
00000060: a9a5 87bd e56c da3c e155 d8be 2d72 d73d
00000070: 6e75 10bf c932 8b3e 28dd 2cbe dcdb c03d
00000080: 7724 75be a8a4 cd3e 698f a9be f9b6 9dbd
00000090: e9e9 e3be 492a d3be 6c08 c7be 7750 a03a
000000a0: 43d6 273e 9304 f6be 0dec 1c3e f2b2 f53e
000000b0: 99ab b33c 5394 083f 9d66 2d3e 6cc5 9b3e
000000c0: 4d9c ddbe 59de bdbe 19a4 2dbe 061c ae3e
000000d0: 10e4 0dbf 3331 c83d b40b bb3e 555d 33be
000000e0: 8fbe ca3e c825 c13c 6989 213e bbe2 87be
000000f0: b2e3 fc3e 4adf 933e 8dd3 84be 1448 b2be

TransformerBlocks.1.feedforward.0.bias f4 [16]
-0.16658083 0.06426178 -0.06482838 -0.33042306 0.32660472 -0.5207783 0.6118248 0.3788638
-0.46795595 -0.13339101 0.42817315 0.27485552 -0.19387801 0.08617861 0.46445292 0.37357467
00000000: 2a94 2abe ae9b 833d bec4 84bd 362d a9be
00000010: bc38 a73e ba51 05bf 8da0 1c3f 70fa c13e
00000020: ec97 efbe a797 08be 8339 db3e ddb9 8c3e
00000030: f587 46be 697e b03d c6cc ed3e 2e45 bf3e
