models/elect/ConvTransformer_elect2020-05-10 11:52:33.147730.pth (torch_old, 80910 bytes, 147 tensors)

token_embedding.weight f4 [370, 4]
0	0xbe8ebfdb	-0.2788075
1	0xbf40dee4	-0.75340104
2	0xbfad65d0	-1.3546696
3	0x3f64eed3	0.89426917
4	0xbf90b4fd	-1.1305233
5	0xbea0d4f0	-0.31412458
6	0xbeb0125c	-0.34389007
7	0x3fa6b9f4	1.3025498
8	0xbfb3b60b	-1.403993
9	0xbe32f35d	-0.17475648
10	0x3e234b90	0.15946794
11	0x3e201f60	0.15636969
12	0x3e500d69	0.20317616
13	0x3c1fd816	0.009756109
14	0x3e797304	0.24360281
15	0xbf653630	-0.8953581
16	0x3f71d3a3	0.94463557
17	0xbe5297d6	-0.20565733
18	0xbf96b85e	-1.1775014
19	0xbfec6173	-1.8467239
20	0xbdaf3183	-0.085543655
21	0x3fa0c42a	1.2559865
22	0x40348d9f	2.8211439
23	0x3e2233c5	0.15840061
24	0x3d585eb3	0.052824687
25	0xbeddebef	-0.43344066
26	0x3f87099e	1.054981
27	0xbe167f0e	-0.14696905
28	0x3e205c3c	0.15660185
29	0xbfaf5873	-1.3698868
30	0xbef188ea	-0.4717477
31	0xbe1e0c66	-0.15434417
32	0xbfe4da31	-1.7879087
33	0xbd220d6e	-0.03956359
34	0xbf85e833	-1.0461487
35	0xbdd72b2b	-0.105062805
36	0x3fb10eeb	1.3832678
37	0x3fb2c879	1.3967429
38	0xbebd11b2	-0.36927563
39	0x3f7f0180	0.99611664
40	0x3e12cefe	0.14336774
41	0xc004663e	-2.0687404
42	0x3e22f09d	0.15912099
43	0xc01c007b	-2.4375293
44	0xbeb29a72	-0.34883457
45	0xbe5afb00	-0.21384811
46	0xc018ba54	-2.3863726
47	0x3e9245b9	0.2856882
48	0x3fd18049	1.6367275
49	0x3fbc9ac3	1.473473
50	0x3e4514cb	0.19246213
51	0xbc83a8bd	-0.016071672
52	0x3f39a60a	0.7251898
53	0xbd301db7	-0.04299709
54	0x3fda0c3a	1.7034981
55	0x3ea66587	0.32499334
56	0xbe846ba8	-0.25863385
57	0x3f02d474	0.5110543
58	0xbf00a02b	-0.50244397
59	0xbea0cb52	-0.3140512
60	0x3fda0c25	1.7034956
61	0xbefff954	-0.4999491
62	0x3e6f682d	0.23379584
63	0xbf128532	-0.5723449
64	0xbf908a80	-1.1292267
65	0xbf693ac0	-0.9110527
66	0x3fa27a5f	1.2693595
67	0xbe13cb12	-0.14432934
68	0x3faf2c42	1.3685381
69	0xbf6b719e	-0.9197024
70	0x3fc6c028	1.5527391
71	0x3e12b017	0.14324985
72	0xbe7a458c	-0.24440593
73	0x3f525b5a	0.8217064
74	0xbf9b0c28	-1.2113085
75	0xbfef1684	-1.8678746
76	0x400640c6	2.0977035
77	0xbf4afc7e	-0.7929152
78	0xbfa4c420	-1.2872353
79	0x3f3674ba	0.7127186
80	0x3ff594e1	1.9186059
81	0xbdafaf51	-0.08578361
82	0xbf857f0d	-1.0429398
83	0xbd759462	-0.059955962
84	0xbf6bb59a	-0.92073977
85	0x3dc71d28	0.09722358
86	0xbf644c91	-0.8917933
87	0xbff94872	-1.9475234
88	0xbefc2fe3	-0.49255285
89	0xc0091761	-2.142052
90	0xbf2da2a4	-0.67826295
91	0x3e2819e3	0.16416125
92	0xbfc73134	-1.5561891
93	0x3f648be7	0.89275974
94	0xbfbb65e1	-1.4640466
95	0x3f8f3f01	1.1191102
96	0x3f8ccb30	1.0999508
97	0x3fe8dcef	1.8192424
98	0xbf0f1874	-0.5589669
99	0x3f01c7bc	0.50695395
100	0xbe25fa0d	-0.16208668
101	0x3f57e54f	0.8433427
102	0x3f4c461f	0.79794496
103	0x3ff56836	1.9172428
104	0xbee116b8	-0.43962646
105	0x3e1726ff	0.1476097
106	0x3f6651d3	0.89968604
107	0x3f26a3ab	0.6509349
108	0x3eb9f9f2	0.36323506
109	0x403100a7	2.7656648
110	0x3f81519d	1.0103031
111	0x4037b161	2.8702013
112	0x3faa2d25	1.3295027
113	0x3ff35a7a	1.9011986
114	0x3e3c366c	0.18380135
115	0xbe2d42b1	-0.16919972
116	0xbee447f5	-0.4458615
117	0xbf38573e	-0.7200812
118	0xbf04186f	-0.5159978
119	0x3db9acc4	0.090661556
120	0xbfb8ca85	-1.4436804
121	0xbf2be1b3	-0.67141265
122	0x3fcab0dc	1.5835223
123	0xbe31fb7c	-0.1738109
124	0xbe17bca6	-0.14818057
125	0xbe661e46	-0.22472486
126	0x3fb0f592	1.3824942
127	0x3e1a9b86	0.1509839
128	0x3ebc34ce	0.36759037
129	0xbf0afbf8	-0.54290724
130	0x3f41c70c	0.75694346
131	0x3f8a8430	1.082159
132	0x3f076d58	0.5290122
133	0x3f7493ee	0.9553822
134	0x3f94b6a4	1.1618237
135	0x3f050358	0.5195823
136	0x3f361a53	0.7113392
137	0x3f4b0064	0.7929747
138	0xbf8df362	-1.10899
139	0x3f6d5afc	0.92716956
140	0xbfa91a59	-1.3211166
141	0x3f5494ff	0.8303985
142	0xbff281fa	-1.8945916
143	0x3fe42169	1.7822696
144	0x3d513457	0.051075306
145	0xbe598177	-0.21240793
146	0x3f92d0bc	1.1469951
147	0x3eea5d50	0.45774317
148	0xbedd7d1a	-0.43259507
149	0xbecff441	-0.40616038
150	0xbe590c8e	-0.21196195
151	0x400c517e	2.192474
152	0xbfa22610	-1.2667866
153	0x3e926338	0.28591323
154	0xbfbaf79e	-1.4606817
155	0x40272678	2.611723
156	0x40011d43	2.017411
157	0x3ed4a15b	0.41529354
158	0xbe920d44	-0.28525746
159	0x3ed44ea3	0.41466245
160	0xbfa8a602	-1.3175662
161	0x3f78318a	0.9695059
162	0x3fed6f7a	1.8549645
163	0xbfbc1759	-1.4694625
164	0x3f384734	0.7198365
165	0x3f7234b5	0.94611675
166	0xbed8d066	-0.42346495
167	0xbf569f7f	-0.8383712
168	0xbfa4647a	-1.2843163
169	0x3e6aca04	0.22928625
170	0xbece2a98	-0.4026687
171	0xbf926a98	-1.143878
172	0xbf2416d5	-0.6409734
173	0xbf2659c4	-0.6498072
174	0xc002e4cc	-2.0452147
175	0xbeacfa27	-0.337846
176	0x3f58324f	0.84451765
177	0x3f922ade	1.1419332
178	0xbe0d8f1c	-0.13824123
179	0x3fefd9e4	1.873837
180	0xbeca1668	-0.3947022
181	0x3f8f653c	1.1202769
182	0xbf495f4b	-0.7866103
183	0xbf27f272	-0.6560432
184	0x3f215708	0.63023424
185	0x3e630d62	0.22173074
186	0xbf4815c1	-0.78158194
187	0xbd868210	-0.06567776
188	0xbdd9af43	-0.10629132
189	0xbe84f267	-0.25966188
190	0xbe8adbec	-0.27120912
191	0x3fc76e4d	1.5580536
192	0x3fa94f04	1.3227239
193	0xbf18485f	-0.5948543
194	0xbfd58515	-1.6681238
195	0x3facf26e	1.3511484
196	0xbdb5e95f	-0.08882403
197	0x3e194eff	0.14971541
198	0x3f002c9b	0.5006806
199	0x40096062	2.1465077
200	0x3eedea33	0.46467742
201	0xbfa27e77	-1.2694844
202	0xbec7716f	-0.3895373
203	0xc011ae6b	-2.2762706
204	0x3e1b91ff	0.15192412
205	0xbf8af046	-1.0854576
206	0xbffeeb73	-1.9915603
207	0x3fa5eea8	1.2963457
208	0x3f127f2d	0.57225305
209	0xbf06ca1f	-0.5265216
210	0x3ef1d264	0.47230828
211	0x3f3ea6de	0.7447337
212	0x3e910609	0.28324917
213	0x3e8672e9	0.26259544
214	0x3ee232ed	0.44179478
215	0x3e9f0c17	0.3106391
216	0x3e372f4f	0.1788914
217	0xbee978b7	-0.4559991
218	0xbfcb959e	-1.5905035
219	0xbcbbaa84	-0.022908457
220	0xbf89e841	-1.0774003
221	0x3ffb606e	1.9638803
222	0xbecb695b	-0.39728817
223	0xbfc9bd6f	-1.5760936
224	0xbe4893d5	-0.19587643
225	0xbfbf4ebd	-1.4945904
226	0x3fad2ddb	1.3529619
227	0xbf9c1d64	-1.2196469
228	0x3f678e41	0.9045144
229	0xbf674a33	-0.90347594
230	0xbf839e2e	-1.0282648
231	0xbebdd52c	-0.370767
232	0x3eafcc46	0.34335536
233	0x3f1ca5a1	0.6119023
234	0xbfcfbb5d	-1.6229054
235	0xbf61aaf9	-0.8815151
236	0x3f736956	0.95082605
237	0xbe219df8	-0.15782917
238	0x3f08d903	0.53456134
239	0xbec8ac74	-0.3919407
240	0xbff46724	-1.9093976
241	0x3e9905dd	0.29887286
242	0xbe09a0c4	-0.13440233
243	0x3ee79e56	0.45237988
244	0xbf8c6ea0	-1.097126
245	0x3f0fc07a	0.5615307
246	0x3f9adb27	1.209813
247	0x3f1573e2	0.5837995
248	0xc02f8a08	-2.7427998
249	0x3f8f11a0	1.1177254
250	0xbed875f8	-0.42277503
251	0x3e66c8f0	0.22537589
252	0xbf99a012	-1.2001975
253	0x3f1a6b0c	0.6031959
254	0xbf915fda	-1.1357377
255	0xbf716f53	-0.9431049

position_embedding.weight f4 [100, 4]
0	0xbef3a46d	-0.47586384
1	0xbf4bda25	-0.7962974
2	0x401d3b0e	2.4567294
3	0xbf1b3c9c	-0.6063936
4	0xbf071034	-0.527591
5	0x3f58fc8e	0.8476037
6	0xbf164d48	-0.5871167
7	0xbf024fa1	-0.50902754
8	0x3fa7df4e	1.3115022
9	0xbec25fe0	-0.37963772
10	0x3f0a8e1d	0.541231
11	0x3d8fd55d	0.07023118
12	0xbefbdb36	-0.49190682
13	0x3c576fba	0.013149196
14	0x3fe4de59	1.7880355
15	0xbf6e460c	-0.93075633
16	0xbfd590fe	-1.6684873
17	0xbecb3b2c	-0.39693582
18	0x3f41b055	0.75659686
19	0x3e8a37a0	0.26995564
20	0xbf154a67	-0.58316654
21	0xbfef5072	-1.8696425
22	0xbd2e7f62	-0.04260195
23	0xbfc8fad5	-1.5701548
24	0x3fed474f	1.8537387
25	0x3f89aa2f	1.0755061
26	0x3f51f59d	0.820154
27	0x3f303d5a	0.68843615
28	0x3df09b98	0.11748427
29	0x3f852cab	1.0404257
30	0x3fc3bdab	1.5292257
31	0x3d8ec12e	0.0697044
32	0x4012ebcd	2.2956421
33	0xbefc4de5	-0.4927818
34	0x3f28da8d	0.6595848
35	0xbfae957f	-1.3639373
36	0x3db09a8d	0.08623228
37	0x3f012ade	0.50456035
38	0x3f756235	0.9585298
39	0x3e1955ca	0.14974132
40	0xbd693747	-0.056937482
41	0x3ecc2f58	0.3987987
42	0x3f8cc503	1.0997623
43	0x3e565bd1	0.20933463
44	0xbf1b5426	-0.60675275
45	0x3ff0ca0b	1.8811659
46	0xbf141ac3	-0.57853335
47	0xbfc1e84e	-1.5149019
48	0x3ed15278	0.4088323
49	0x3fbaf2e4	1.4605374
50	0x3f466dbd	0.775112
51	0xbfd24093	-1.6425956
52	0x3f93ff3d	1.1562268
53	0x3f260e22	0.64865315
54	0x3da7dd9d	0.08196566
55	0x3f62038d	0.8828667
56	0x3f51ce5c	0.81955504
57	0x3f4d485b	0.8018853
58	0x3f4cb1f1	0.7995902
59	0xbd92e673	-0.07172861
60	0x3ef8b6c5	0.48576942
61	0xbdd02149	-0.10162599
62	0xbf10623f	-0.5639991
63	0x3f23288a	0.6373373
64	0xbfb8b7b2	-1.4431059
65	0xbf6d2637	-0.92636436
66	0xbde6fcc0	-0.11278677
67	0xbe4154d7	-0.1888002
68	0x3d78a89a	0.060707666
69	0xbf2da049	-0.678227
70	0x3f311826	0.6917747
71	0xbe30a0d5	-0.17248853
72	0xbee1460d	-0.43998757
73	0x3fbfec73	1.4994034
74	0xbf9437a8	-1.1579485
75	0x3e9ddc78	0.30832267
76	0x3ecf9850	0.40545893
77	0x3f46a9a2	0.7760259
78	0x3f8ddbff	1.1082762
79	0xbf9a44d7	-1.2052258
80	0xbe5afe60	-0.21386099
81	0x3f92afb0	1.1459866
82	0xbf8efa63	-1.1170162
83	0xbe2cc382	-0.16871455
84	0xc01ee7fe	-2.4829097
85	0x3f874278	1.056716
86	0xbffa796a	-1.9568303
87	0x3f715d1c	0.942827
88	0xbf4097c9	-0.75231606
89	0xbeb17352	-0.34658295
90	0x3fc7eac6	1.5618522
91	0x3ffdd8d0	1.9831791
92	0xbf2ed485	-0.6829303
93	0x3f6dda71	0.9291144
94	0x3f36aa3f	0.71353525
95	0xbf3b9523	-0.7327444
96	0xbf5ef016	-0.8708509
97	0xbfe5825a	-1.7930405
98	0xbfa1e8c7	-1.2649163
99	0xbfb352f5	-1.4009691
100	0xbe0d790e	-0.1381571
101	0x3f7d30e3	0.9890272
102	0xbfdaf1f1	-1.7105085
103	0xbeba96ee	-0.36443275
104	0xbe3eafce	-0.18621752
105	0xbe515aa9	-0.2044474
106	0x3fbffc8f	1.499895
107	0x3e9f90aa	0.31165057
108	0x3e88601a	0.2663582
109	0x3f83c257	1.0293683
110	0x3e3c2ca8	0.1837641
111	0x3fbe3d0e	1.4862382
112	0x3d98f451	0.07468475
113	0x3f3ee205	0.7456363
114	0xbfe7a414	-1.8096948
115	0xbe82b116	-0.2552573
116	0x3e6d8189	0.23193945
117	0x3f363456	0.7117361
118	0xbf8e3a60	-1.1111565
119	0x3f8aa014	1.0830102
120	0x3f89898d	1.0745102
121	0x3fe1124f	1.7583712
122	0xbf12057f	-0.57039636
123	0x3fedae17	1.8568753
124	0xbea864f9	-0.32889536
125	0x3b647bd7	0.0034863853
126	0xbe9f6b21	-0.3113642
127	0xbe4cdcbb	-0.20006077
128	0xbf8a0cf5	-1.0785204
129	0xbf928614	-1.1447167
130	0xbb149c62	-0.002267622
131	0x3e562dba	0.20915881
132	0x4026ee2b	2.6082866
133	0xbf34996d	-0.7054661
134	0xbfc9ccd6	-1.5765636
135	0x3ff7e70c	1.9367385
136	0xbfbad9ee	-1.4597757
137	0xbf53bdd0	-0.82711506
138	0xbfccf748	-1.6012964
139	0xbe4e80f1	-0.20166375
140	0x3f279972	0.65468514
141	0x3ef97a4f	0.48726127
142	0xbd7979d4	-0.0609072
143	0xc00ed4f6	-2.231748
144	0xbf0ac5c4	-0.54208016
145	0xbfae2751	-1.3605748
146	0x3fb3ddce	1.4052064
147	0xbec93833	-0.3930069
148	0xbf7602d8	-0.9609809
149	0x40094870	2.1450462
150	0xbe643ba2	-0.22288373
151	0x3eaa3090	0.33240175
152	0x3f10112a	0.5627619
153	0xc00a1396	-2.1574454
154	0xbea157cf	-0.31512305
155	0xbfaa28a7	-1.3293656
156	0x3eb51601	0.3536835
157	0x3dacf40e	0.08444987
158	0x3f827cee	1.0194376
159	0x3ee24ade	0.44197744
160	0x3f5e58de	0.8685435
161	0x3f009af8	0.50236464
162	0xbe994a07	-0.2993929
163	0xbdb54157	-0.08850353
164	0xbdbd706e	-0.0924996
165	0xbef8afe2	-0.48571688
166	0xbfab0200	-1.3359985
167	0xbf9e2353	-1.235453
168	0xbf729f84	-0.9477465
169	0x3e8fe440	0.28103828
170	0x3effb7ba	0.4994486
171	0x40021bd9	2.0329497
172	0xbf80a163	-1.0049251
173	0x3f864c23	1.0491985
174	0xbbcebcdd	-0.0063091354
175	0xbf2c3ed1	-0.6728335
176	0xbeb57432	-0.35440212
177	0x3f4e09af	0.80483526
178	0xbe903c46	-0.28170985
179	0xbea6b520	-0.32560062
180	0xbf1a2ae1	-0.6022168
181	0x3e82fb27	0.2558224
182	0x3eb54c2c	0.35409677
183	0x3edb25a1	0.42802146
184	0x3f543da0	0.8290653
185	0x3f494d2e	0.7863339
186	0xbeb1b2ee	-0.34706825
187	0x3ec9045e	0.39261144
188	0xbf9066fb	-1.1281427
189	0x3d2121eb	0.039338987
190	0xbf6326f6	-0.88731325
191	0xbfc51830	-1.5398006
192	0x3f6d9732	0.9280883
193	0x3f90b34b	1.1304716
194	0xbeb2e644	-0.34941304
195	0xbfb9d405	-1.4517828
196	0x3f12bfef	0.5732412
197	0xbfaf2f11	-1.3686239
198	0xbf7ad54a	-0.97981703
199	0x3f9baba0	1.2161751
200	0xbf24391d	-0.6414965
201	0x3eb3e0c5	0.35132423
202	0x3ea88ae0	0.32918453
203	0x3f80c171	1.0059034
204	0xbe90065b	-0.2812985
205	0x3f5b4b18	0.8566146
206	0xbe64da8c	-0.22348994
207	0xbeb4189c	-0.35175025
208	0x3f4689c1	0.77553946
209	0xbf631c7d	-0.88715345
210	0xbf3cd562	-0.73763096
211	0xbf94ce73	-1.1625503
212	0x3fce5c9e	1.6122015
213	0x3f3deec5	0.7419246
214	0xbf8ac8d4	-1.0842538
215	0x3f489203	0.78347796
216	0x3ce18c6d	0.02753278
217	0x3fc6d899	1.553485
218	0xbf618af5	-0.88102657
219	0x3e12b859	0.14328136
220	0x3f5abe27	0.854464
221	0x3ec21b23	0.3791133
222	0xbf25f798	-0.64830923
223	0xbf1dfb51	-0.61711603
224	0xbfb01384	-1.3755956
225	0x40053366	2.081262
226	0x400b6190	2.1778297
227	0xbea70e09	-0.32627895
228	0x3fe0d82b	1.7565969
229	0xbe0760f8	-0.13220584
230	0xbe9718d3	-0.29511127
231	0xc0461fa3	-3.095681
232	0xbf8dec34	-1.1087708
233	0xbf44e7c2	-0.76916134
234	0x3f871d8d	1.0555893
235	0x3e2b0d98	0.16704404
236	0xbe668596	-0.22511896
237	0xbeba49d2	-0.36384445
238	0x4007d294	2.1222277
239	0x3f7da0e9	0.99073654
240	0xbfce9735	-1.6139895
241	0x3f353cdf	0.70796007
242	0xbdb4e316	-0.08832376
243	0xbf0aeccb	-0.5426757
244	0x3fe9ad8e	1.825609
245	0xbd53170c	-0.05153565
246	0x3f0c72a8	0.5486245
247	0x3fcee5ef	1.616392
248	0xbe0ae7c0	-0.13564968
249	0xbe9f0ec1	-0.31065944
250	0xbf7dd552	-0.99153626
251	0xbf8eb574	-1.1149125
252	0x3f88b827	1.0681199
253	0xbefddb0c	-0.49581182
254	0x3f6559ef	0.8959035
255	0x3e8623dc	0.26199234

TransformerBlocks.0.attention.toqueries.weight f4 [12, 4, 6]
0	0xbcfc0966	-0.0307662
1	0xbe7a3771	-0.24435212
2	0xbcdcdfb3	-0.026962137
3	0xbcb169c7	-0.021656884
4	0xbe243b5e	-0.16038272
5	0xbe43f313	-0.19135694
6	0x3e424917	0.18973194
7	0xbd8d085e	-0.068863615
8	0x3d57dba3	0.052699696
9	0xbccf9443	-0.025339251
10	0xbbc085e4	-0.005875336
11	0x3cd33160	0.02578038
12	0xbdcfa92c	-0.10139689
13	0xbdf62555	-0.12018839
14	0x3d9bf5eb	0.076152645
15	0xbcaf1b36	-0.02137528
16	0x3da826f4	0.08210555
17	0xbe542d02	-0.20720294
18	0x3c0416d1	0.0080620805
19	0x3db82d6e	0.0899304
20	0x3d966b72	0.07344712
21	0x3d6fdee6	0.058562182
22	0x3dd42d88	0.10360247
23	0xbe0bd99e	-0.13657233
24	0xbdb8a548	-0.090159
25	0xbc067ddb	-0.008208717
26	0xbdede215	-0.11615387
27	0xbd41b335	-0.047290046
28	0xbe285170	-0.16437316
29	0x3d24f809	0.040275607
30	0xbd08b6ce	-0.03337746
31	0xbc7f171f	-0.015569477
32	0xbe125772	-0.1429117
33	0x3c20a18f	0.009804144
34	0xbdb5b2ff	-0.088720314
35	0xbdbbd612	-0.0917169
36	0xbe372867	-0.17886506
37	0xbdaa617e	-0.083193764
38	0xbe460aea	-0.19340101
39	0xbd5601be	-0.052247755
40	0xbe638a9a	-0.22220841
41	0xbe5c00c0	-0.21484661
42	0x3d28b6d7	0.041189995
43	0xbe4a20cb	-0.19739072
44	0xbe53013f	-0.20605944
45	0xbe7ba94f	-0.24576305
46	0xbdc7c66f	-0.09754645
47	0x3d0df91f	0.03466141
48	0xbdd29e7c	-0.10284135
49	0xbdc5cfe5	-0.09658793
50	0xbdc3fcbc	-0.0956969
51	0xbd6dce61	-0.058058146
52	0x3dd9366c	0.10606083
53	0x3ae2cc5c	0.0017303335
54	0x3e333b5c	0.17503113
55	0x3cceec63	0.025259202
56	0x3c5ddc01	0.013541223
57	0x3d6f9965	0.058495898
58	0xbe00ccf1	-0.12578179
59	0xbd8d354c	-0.06894931
60	0x3d76a3d7	0.060214844
61	0x3c7951aa	0.015217224
62	0xbd9cf46e	-0.07663809
63	0xbe6b4ea4	-0.22979218
64	0x3ccf670f	0.025317697
65	0xbcff6f2b	-0.031180939
66	0x3dbf2397	0.0933296
67	0x3e086025	0.13317926
68	0xbd991c6f	-0.074761264
69	0xbde7f115	-0.113252796
70	0x3d83176a	0.0640095
71	0xbdffe4ac	-0.124947876
72	0xbe00e4e1	-0.1258731
73	0x3e2b1305	0.16706474
74	0xbddd123d	-0.10794494
75	0x3d378942	0.044808634
76	0x3b57cb73	0.0032927662
77	0xbcde00c5	-0.027099976
78	0x3dbe8d3d	0.09304283
79	0x3d5364c4	0.05160977
80	0x3cf64388	0.030061498
81	0xbe669cc7	-0.22520743
82	0xbe4d8d13	-0.20073347
83	0xbe423b5f	-0.18967961
84	0xbce156b1	-0.027507158
85	0x3e24d72f	0.16097711
86	0x3e6db0e6	0.23212013
87	0x3e12c057	0.14331184
88	0x3d2ca9e5	0.04215421
89	0x3e45a623	0.19301657
90	0xbcb7d019	-0.022438096
91	0xbd98ff3c	-0.07470557
92	0xbe16eab6	-0.14737973
93	0x3d49d794	0.049277857
94	0x3e806a8d	0.25081292
95	0xbd982871	-0.074295886
96	0x3e4d5590	0.20052171
97	0xbd76d5df	-0.060262557
98	0xbd829689	-0.063763686
99	0xbd938b56	-0.072043106
100	0x3e002c5c	0.12516922
101	0xbe0ac631	-0.13552167
102	0xbcf754bd	-0.030191774
103	0x3c6feb5c	0.014643516
104	0xbe3d5958	-0.18491113
105	0xbe511a79	-0.20420255
106	0x3e34a448	0.17640793
107	0xbe29b7a8	-0.16573966
108	0x3d21de58	0.039518684
109	0xbe0c4f60	-0.13702154
110	0xbe081c5b	-0.13292067
111	0x3dcbb5d3	0.099467896
112	0xbdd28fcb	-0.102813326
113	0x3e323ee5	0.17406805
114	0xbc5ee66d	-0.0136047425
115	0x3e57fa80	0.21091652
116	0x3d87ebb6	0.06636755
117	0x3e5e8056	0.21728644
118	0x3db5de6a	0.08880313
119	0x3dd912a5	0.10599259
120	0xbcc3286d	-0.023822987
121	0x3e5f5d2b	0.21812885
122	0x3e2cc86a	0.16873327
123	0xbd84bea4	-0.06481674
124	0x3e48d4b8	0.19612396
125	0x3d6036a0	0.054739594
126	0xbdd5a780	-0.10432339
127	0xbe80a2bf	-0.25124165
128	0xbe66271b	-0.22475855
129	0x3c4099c6	0.011755412
130	0xbe13c8f5	-0.14432128
131	0xbcf7af6f	-0.03023502
132	0xbe0ffad7	-0.14060532
133	0x3cf4763c	0.029841535
134	0xbe027ad8	-0.12742174
135	0x3dc4370b	0.09580811
136	0x3e02faaf	0.1279094
137	0xbd92b84c	-0.07164058
138	0xbd834cf5	-0.06411163
139	0x3e427910	0.18991494
140	0x3e45cd91	0.19316699
141	0x3d9d576b	0.07682689
142	0x3d7f7a9e	0.062372796
143	0x3d8ea652	0.06965317
144	0xbde672d2	-0.11252369
145	0x3d79ebc9	0.061015878
146	0xbe33eb05	-0.17570122
147	0xbd610742	-0.054938562
148	0x3dee16b6	0.116254255
149	0xbcea7ef0	-0.028624982
150	0xbe5a39ae	-0.21311066
151	0x3d9356f6	0.07194321
152	0xbd5b7994	-0.053582743
153	0xbe771624	-0.2412954
154	0x3c187c7b	0.009307022
155	0x39c6cd4c	0.0003791846
156	0x3d7776dd	0.06041609
157	0xbdb2f397	-0.08737867
158	0x3d5e24bc	0.05423425
159	0xbd913a5e	-0.07091211
160	0x3cfd6998	0.03093414
161	0x3dd196e4	0.10233858
162	0xbdeee0ce	-0.11663972
163	0x3dc9fa03	0.09862139
164	0xbe74ecf5	-0.23918517
165	0xbe49ce0f	-0.19707511
166	0xbe7bf9c2	-0.24606994
167	0xbe3bce91	-0.18340518
168	0x3ddcf032	0.10788001
169	0xbcec4899	-0.028843211
170	0xbdfac478	-0.12244505
171	0x3c18d18e	0.0093273055
172	0x3c34d819	0.01103785
173	0xbd2dffee	-0.0424804
174	0xbc2cd708	-0.010549314
175	0x3e005b73	0.12534885
176	0x3dfd02cf	0.12354051
177	0x3ddbf0d7	0.10739296
178	0xbda98030	-0.08276403
179	0xbdb84466	-0.08997421
180	0x3e29d1b3	0.165839
181	0x3ce830ea	0.028343637
182	0xbd8e885b	-0.069596015
183	0x3e1cd79b	0.15316622
184	0x3de23c19	0.11046619
185	0x3d5057bc	0.05086492
186	0xbe5ea884	-0.21743971
187	0xbe1b83c9	-0.15186991
188	0xbe281cfb	-0.16417305
189	0x3b89374e	0.004187501
190	0xbd14475c	-0.036200866
191	0xbd4b64a7	-0.049656536
192	0xbdb977b6	-0.09056036
193	0xbdbb1746	-0.091352984
194	0x3de7c87c	0.11317536
195	0xbdb9d217	-0.090732746
196	0xbdc8ab09	-0.09798247
197	0xbe01b016	-0.12664828
198	0xbe6f8817	-0.23391758
199	0xbde00c0b	-0.10939797
200	0x3d3ef462	0.04661978
201	0xbd4d0f72	-0.050063558
202	0xbdd9efc2	-0.10641433
203	0xbd45ac89	-0.048260245
204	0x3e2a3f2f	0.16625665
205	0x3dbaf283	0.09128287
206	0xbd7ee647	-0.06223133
207	0x3e3c69dc	0.18399757
208	0x3e58832a	0.21143785
209	0xbdaf705c	-0.08566353
210	0xbe3e4645	-0.18581493
211	0xbdb8c12c	-0.090212196
212	0x3dcb30b6	0.099214
213	0xbe30d5fe	-0.17269132
214	0xbdb0ee33	-0.08639183
215	0xbe38359c	-0.179892
216	0x3e02b937	0.12765966
217	0xbdfc0aaf	-0.12306725
218	0xbe10dc67	-0.14146577
219	0x3dca24ba	0.09870286
220	0x3d46e770	0.04856056
221	0xbc9b6ba8	-0.018972233
222	0xbe23f352	-0.16010788
223	0x3e2aee9c	0.16692585
224	0x3e124239	0.14283074
225	0xbe5158b3	-0.20443992
226	0x3e36b02e	0.17840645
227	0xbd5374d5	-0.05162509
228	0xbe10d98a	-0.14145485
229	0xbca5c8f0	-0.020237416
230	0x3e1a2b08	0.15055478
231	0xbd730522	-0.059331067
232	0x3df680fd	0.12036321
233	0xbde9a078	-0.1140756
234	0x3dac89dc	0.08424732
235	0xbdd801a8	-0.10547191
236	0xbe21dc78	-0.15806758
237	0x3d825bf9	0.06365199
238	0x3d478d66	0.048718832
239	0x3c464bef	0.012103065
240	0x3cf15513	0.029459512
241	0x3ca137a0	0.019679844
242	0xbe418562	-0.18898538
243	0xbd91e941	-0.07124568
244	0xbe856530	-0.26053762
245	0xbd4571ce	-0.048204236
246	0xbb1b04df	-0.0023654026
247	0xbe3f6ef5	-0.1869467
248	0x3d3a295b	0.045449596
249	0xbd1a7936	-0.037713252
250	0x3aa6c269	0.0012722734
251	0xbdbb37b3	-0.09141483
252	0xbe5aa9d3	-0.21353845
253	0x3d1b9baf	0.03799027
254	0xbce7b7c5	-0.02828587
255	0xbe42e609	-0.19033064

TransformerBlocks.0.attention.toqueries.bias f4 [12]
0	0xbe88df03	-0.26732644
1	0xbe8902e8	-0.2676003
2	0xbe837578	-0.2567556
3	0x3dad59b1	0.08464373
4	0x3c0d1dc4	0.008613054
5	0x3e3e5762	0.18588021
6	0xbc18c9f9	-0.009325498
7	0xbe668e8c	-0.22515315
8	0xbe5696a2	-0.209559
9	0xbe4dca68	-0.20096743
10	0xbe40eb6f	-0.18839811
11	0xbe01d30d	-0.12678166

TransformerBlocks.0.attention.tokeys.weight f4 [12, 4, 6]
0	0xbd29242e	-0.04129427
1	0x3e84f834	0.25970614
2	0xbdadf24f	-0.08493482
3	0x3dad4847	0.084610514
4	0x3da79654	0.0818297
5	0xbcdd8bb1	-0.02704415
6	0xbe1f29e1	-0.1554332
7	0x3db34cb6	0.08754866
8	0x3e0a9d12	0.1353648
9	0x3a9d79aa	0.0012014408
10	0x3cfe73a3	0.031061
11	0xbdc73fb2	-0.09728946
12	0x3e05714f	0.13031505
13	0x3db1f62d	0.086895324
14	0x3cca4176	0.024689417
15	0x3e2d7878	0.16940486
16	0x3d104d76	0.035230123
17	0x3df7f1cd	0.12106667
18	0xbde6c94e	-0.112688646
19	0x3e30af7f	0.17254446
20	0xbdd05e37	-0.1017422
21	0x3e61f7b5	0.22067149
22	0xbd707be5	-0.058711905
23	0x3c8a58d9	0.016888069
24	0xbd570c22	-0.052501805
25	0x3d009344	0.031390443
26	0x3c6c7f78	0.014434688
27	0x3d8aa0db	0.06768962
28	0xbca79a5c	-0.020459346
29	0xbccca62a	-0.024981577
30	0xbdf34eab	-0.11880239
31	0x3e15c941	0.14627554
32	0x3e310134	0.17285615
33	0x3cf0fedd	0.029418403
34	0x3e260916	0.16214404
35	0x3e8c7323	0.27431592
36	0x3b922f6a	0.0044612186
37	0x3dc54bfd	0.09633634
38	0xbe7d485f	-0.24734639
39	0xbe8b4eb1	-0.27208474
40	0x3d34a9c4	0.044107214
41	0xbdd63af0	-0.1046046
42	0xbd1bfbdb	-0.038081985
43	0xbe39c8b8	-0.18142974
44	0x3e0ae58b	0.13564126
45	0xbda108c5	-0.07863001
46	0x3e3f4d4d	0.18681832
47	0xbe3b748e	-0.18306181
48	0x3e836fab	0.25671133
49	0xbe043a3e	-0.12912843
50	0x3e311adc	0.17295402
51	0x3ccc30e1	0.024925651
52	0x3e780b31	0.24223019
53	0x3e193c27	0.14964353
54	0xbdd98d4b	-0.106226526
55	0xbdaa19ce	-0.08305703
56	0x3c950e15	0.018195191
57	0x3dc3db19	0.09563274
58	0xbd5e0d19	-0.05421171
59	0xbe96b3e1	-0.29434112
60	0x3dc75e9a	0.09734841
61	0x3e578f26	0.210507
62	0xbdb9ca29	-0.09071762
63	0x3e3c3660	0.18380117
64	0x3e3ed8c6	0.1863738
65	0x3e4bb1eb	0.19892089
66	0x3e18a372	0.149061
67	0xbdcc197c	-0.09965798
68	0xbe445f82	-0.19177058
69	0xbd93fb97	-0.07225721
70	0xbcde2080	-0.027115107
71	0x3d9dec69	0.07711107
72	0xbc0af82c	-0.00848202
73	0x3da40133	0.08008041
74	0xbcc8107f	-0.024421928
75	0xbe402b34	-0.1876648
76	0xbe1400b2	-0.1445339
77	0x3d814c78	0.063134134
78	0x3b94732c	0.004530331
79	0x3db2990f	0.087206
80	0x3e54fbea	0.20799223
81	0x3e453a30	0.19260478
82	0xbdc6d599	-0.09708709
83	0xbdbff683	-0.0937319
84	0xbcb6a488	-0.022295251
85	0x3cb4a383	0.022050625
86	0xbd974dee	-0.07387911
87	0xbdb2539a	-0.08707352
88	0x3d028d49	0.03187302
89	0xbddce6f0	-0.10786235
90	0xbe2c67bf	-0.16836451
91	0x3d9304f6	0.071786806
92	0xbdbdefcc	-0.09274253
93	0x3c873919	0.016506718
94	0xbe43a689	-0.19106497
95	0x3e026860	0.12735128
96	0x3dea716b	0.11447414
97	0xbd531cf9	-0.051541302
98	0x3e4e085d	0.20120378
99	0x3e2b80c0	0.16748333
100	0x3d872f09	0.06600768
101	0x3c50dfc4	0.012748662
102	0x3d01e1b6	0.031709395
103	0x3df84d9c	0.12124178
104	0x3c2d8c53	0.010592538
105	0xbe61d264	-0.22052914
106	0xbdda7260	-0.106663465
107	0xbdece96c	-0.11567959
108	0xbdec7059	-0.11544866
109	0x3d029ac3	0.031885874
110	0x3e470b3a	0.19437876
111	0x3c307ad9	0.010771477
112	0xbdd5bbee	-0.10436235
113	0x3d9dcb01	0.077047355
114	0xbd1c3bf3	-0.03814311
115	0x3e6ac8df	0.22928189
116	0xbd99ee04	-0.07516101
117	0xbda8c0b7	-0.082398824
118	0xbdb4846d	-0.08814321
119	0x3e5d0cce	0.21586916
120	0xbd0f5278	-0.034990758
121	0xbdce9745	-0.10087446
122	0xbe1c9a8a	-0.15293327
123	0x3d8309a8	0.06398326
124	0x3d0f5492	0.034992762
125	0xbe4a2e5a	-0.19744244
126	0xbdfb6721	-0.1227553
127	0xbccfb788	-0.02535607
128	0x3e481f9a	0.19543305
129	0x3e33c66c	0.1755616
130	0x3e3fcc93	0.18730383
131	0x3d994681	0.07484151
132	0x3e0d6dd1	0.13811423
133	0xbe0d08d6	-0.13772902
134	0xbe4dcdce	-0.2009804
135	0xbdcb2fca	-0.099212244
136	0x3df10a01	0.11769486
137	0x3de40fc4	0.111358196
138	0xbccc4a51	-0.02493778
139	0x3d00a42b	0.031406563
140	0xbe2e599c	-0.17026371
141	0xbd5b85b8	-0.05359432
142	0x3d58013c	0.052735552
143	0x3e134401	0.1438141
144	0x3d191c0f	0.037380274
145	0x3d6f4e14	0.05842407
146	0x3e001c8a	0.12510887
147	0x3e195458	0.14973581
148	0xbd4f19b8	-0.050561637
149	0x3e09c939	0.13455667
150	0xbc39cdfa	-0.011340613
151	0xbc8e64eb	-0.017382106
152	0x3c18b5dc	0.009320702
153	0xbd46ae84	-0.048506275
154	0xbdab75f8	-0.0837211
155	0x3da1e028	0.079040825
156	0x3df932c3	0.12167885
157	0xbd6dc3b2	-0.058047958
158	0x39db6ed5	0.0004185351
159	0xbdfda726	-0.12385397
160	0x3c9ce199	0.019150542
161	0xbd676482	-0.056492336
162	0xbdb19cf4	-0.086725146
163	0x3e1831f3	0.14862804
164	0x3c7421b9	0.014900618
165	0x3e4a8004	0.19775397
166	0x3d8f8ede	0.07009672
167	0x3e604769	0.21902241
168	0xbcc53199	-0.024071502
169	0x3e77e65c	0.24208969
170	0xbe162192	-0.14661244
171	0x3c627188	0.013821013
172	0xbe2bbac2	-0.16770461
173	0x3db1567c	0.08659074
174	0x3e0c2b9f	0.13688515
175	0xbe0aeb03	-0.13566212
176	0xbd448a45	-0.047983427
177	0x3e63ddb8	0.22252548
178	0x3e4ba713	0.19887953
179	0xbd6bf100	-0.057602882
180	0x3bedbb4e	0.0072549945
181	0x3df2fd48	0.11864716
182	0xbbbd9764	-0.0057858694
183	0xbdcb7295	-0.09933964
184	0xbce11f30	-0.027480692
185	0x3b3d87ae	0.0028919983
186	0xbdae3cde	-0.08507703
187	0xba870558	-0.0010301275
188	0xbe164664	-0.1467529
189	0x3e22c7e8	0.1589657
190	0xbd2bf57d	-0.041982163
191	0xbdd172a1	-0.10226942
192	0x3ddbf02d	0.10739169
193	0xbe810061	-0.25195602
194	0xbe1a99ea	-0.15097776
195	0xbd717153	-0.058945965
196	0x3db0c3c8	0.08631092
197	0xbe468129	-0.19385208
198	0xbe2b5054	-0.16729861
199	0x3d3a408a	0.045471705
200	0x3c802638	0.015643224
201	0xbdc4c84a	-0.096085146
202	0xbe106254	-0.14100009
203	0xbe7dac61	-0.24772789
204	0x3d83859f	0.064219706
205	0x3e5f577c	0.21810716
206	0xbdcd3410	-0.10019696
207	0x3e7423c1	0.23841764
208	0x3e281e44	0.16417795
209	0x3dd42b84	0.103598624
210	0xbe13d7b0	-0.14437747
211	0xbe19bdd3	-0.15013818
212	0xbe5be822	-0.2147527
213	0xbd35ccc9	-0.04438475
214	0xbe340128	-0.17578566
215	0xbe2a6f88	-0.16644108
216	0x3db15a74	0.08659831
217	0xbdca5c2b	-0.09880861
218	0xbdbdd981	-0.09270001
219	0xbe1eea5c	-0.15519089
220	0x3e3e5b4a	0.18589512
221	0x3ddebe4d	0.10876141
222	0x3df54e19	0.119777866
223	0x3da7f55f	0.08201098
224	0xbe1efc9b	-0.15526049
225	0x3e03ef42	0.12884238
226	0x3c71eae4	0.014765475
227	0x3d84d12c	0.06485209
228	0x3e218505	0.15773399
229	0xbc431ee8	-0.011909224
230	0x3dcb28d1	0.099198945
231	0x3dccf71f	0.10008072
232	0xbe194b06	-0.14970025
233	0x3e3266fd	0.174221
234	0x3e13145b	0.14363234
235	0x3e20770c	0.15670413
236	0x3d4e693b	0.050393324
237	0x3e28a59d	0.16469426
238	0xbdaa24f5	-0.0830783
239	0x3c56ac58	0.013102613
240	0x3db948e9	0.0904711
241	0xbd02238d	-0.031772185
242	0xbe275119	-0.1633953
243	0xbe76f3f5	-0.241165
244	0x3da76bd7	0.08174866
245	0xbe0fce64	-0.14043576
246	0x3e2ab5fd	0.16670986
247	0x3d68b3a7	0.056811955
248	0x3e0ac347	0.13551055
249	0x3d38c793	0.045112204
250	0xbe2fa809	-0.17153944
251	0x3c9d934e	0.01923528
252	0xbd854cb1	-0.06508768
253	0x3e49e5fe	0.19716641
254	0xbd547ee1	-0.051878814
255	0xbccb6cec	-0.024832211

TransformerBlocks.0.attention.tokeys.bias f4 [12]
0	0x3e4c7543	0.19966607
1	0xbe265e88	-0.16246998
2	0x3db80938	0.08986133
3	0x3d4f6453	0.050632786
4	0x3e2e9ab7	0.17051207
5	0xbdde82f4	-0.10864821
6	0xbd8c093a	-0.06837697
7	0x3e2bee43	0.16790108
8	0xbd3c0fb0	-0.0459134
9	0x3e6f84af	0.23390459
10	0x3d47ffe1	0.04882801
11	0x3d73fe84	0.059568897

TransformerBlocks.0.attention.tovalues.weight f4 [12, 4, 1]
0	0x3ef5857f	0.47953412
1	0xbe86be41	-0.26317027
2	0xbdfe758d	-0.12424765
3	0x3e0f7220	0.14008379
4	0x3e68a243	0.22718148
5	0x3ebe0672	0.37114292
6	0x3f10d33f	0.56572336
7	0x3ec5fb91	0.38668492
8	0xbdcb274f	-0.09919607
9	0x3e805154	0.25062048
10	0x3eb77111	0.3582845
11	0x3dc84f1c	0.09780714
12	0xbd224358	-0.039615005
13	0xbe1b4430	-0.1516273
14	0xbf030747	-0.5118298
15	0xbd7d090f	-0.061776217
16	0xbea39603	-0.31950387
17	0xbe9fe194	-0.3122679
18	0xbe44431b	-0.19166224
19	0x3ec9c722	0.3940974
20	0x3ea72f8d	0.32653466
21	0x3e7ae35f	0.24500798
22	0x3e404f85	0.18780334
23	0x3e8ff1b6	0.28114098
24	0xbe96e8b7	-0.29474422
25	0x3e0476f0	0.12935996
26	0xbe09d704	-0.13460928
27	0xbd6ab80f	-0.05730444
28	0x3f00e1d4	0.50344586
29	0xbe93aa7b	-0.28841004
30	0x3e9e4f2d	0.3091978
31	0x3eac9c3e	0.33712953
32	0x3c54f4bd	0.012997803
33	0x3f0f7fa3	0.56054133
34	0x3d819686	0.06327538
35	0x3e0ecb53	0.1394475
36	0x3c9f3e53	0.019438898
37	0xbbe8ae43	-0.0071008517
38	0xbe5806c4	-0.21096331
39	0xbea93438	-0.33047652
40	0xbe455c0f	-0.19273399
41	0x3ee8ad1f	0.4544458
42	0xbedf29b0	-0.43586493
43	0x3d14686c	0.036232397
44	0xbd3342e6	-0.04376497
45	0x3d2e3035	0.042526443
46	0x3e728bd8	0.23686159
47	0xbe9b3169	-0.30311134

TransformerBlocks.0.attention.unifyheads.weight f4 [4, 12]
0	0x3e21d3ee	0.15803501
1	0xbe45cf2e	-0.19317314
2	0x3eb2e6f0	0.34941816
3	0xbe525a0a	-0.2054216
4	0xbe56b90e	-0.2096903
5	0x3e96d71b	0.29460987
6	0x3ea88d26	0.32920188
7	0x3ddc5847	0.10759025
8	0x3d85c3e0	0.06531501
9	0x3befc1dc	0.007316811
10	0x3dd85234	0.10562554
11	0xbc956415	-0.0182362
12	0x3ea47602	0.32121283
13	0x3e432819	0.19058265
14	0x3e1686e3	0.14699893
15	0xbeb42c39	-0.3518999
16	0xbd964798	-0.07337874
17	0x3de4daeb	0.11174568
18	0x3e9e2907	0.30890676
19	0xbea4a063	-0.32153615
20	0x3da0dc06	0.07854466
21	0x3e807355	0.2508799
22	0xbe3b14b6	-0.1826962
23	0xbe6d050c	-0.23146456
24	0x3dd00a63	0.10158231
25	0x3d5125a2	0.05106128
26	0x3e42100e	0.18951437
27	0xbcb1178f	-0.021617679
28	0x3e342378	0.17591655
29	0x3d6dbc35	0.058040816
30	0xbe0dc70a	-0.13845459
31	0xbe43ab2e	-0.19108269
32	0x3e00c232	0.1257408
33	0x3e73f08d	0.23822232
34	0xbe9a132a	-0.30092746
35	0xbd8ae521	-0.06781984
36	0xbd66324d	-0.056200314
37	0x3c599123	0.013279232
38	0xbe99bd66	-0.30027312
39	0x3e9a7eee	0.30174965
40	0x3d564fe5	0.052322287
41	0xbd36f172	-0.044663854
42	0xbeac1122	-0.3360682
43	0x3eb38244	0.35060322
44	0x3bdfb690	0.006827183
45	0x3d766b30	0.060160816
46	0xbe832d85	-0.25620666
47	0xbd93a805	-0.072097816

TransformerBlocks.0.attention.unifyheads.bias f4 [4]
0	0x3e70b3b5	0.23506053
1	0x3e84c002	0.2592774
2	0x3caac84f	0.020847468
3	0x3e4f457d	0.20241351

TransformerBlocks.0.norm1.weight f4 [4]
0	0x3f7fc13b	0.9990422
1	0x3f75d002	0.9602052
2	0x3f71d098	0.94458914
3	0x3f6a4668	0.9151368

TransformerBlocks.0.norm1.bias f4 [4]
0	0x3d97e6c9	0.07417066
1	0x3da365de	0.07978414
2	0xbd62a900	-0.055336952
3	0xbd982529	-0.07428963

TransformerBlocks.0.norm2.weight f4 [4]
0	0x3f64b3da	0.8933693
1	0x3f8779a5	1.0583998
2	0x3f60217c	0.87551093
3	0x3f76cdaa	0.9640757

TransformerBlocks.0.norm2.bias f4 [4]
0	0x3dc1ba87	0.094594054
1	0x3dac33fe	0.08408354
2	0xbd84a7d9	-0.06477327
3	0xbda14277	-0.07874005

TransformerBlocks.0.feedforward.0.weight f4 [16, 4]
0	0x3ce281b4	0.027649738
1	0x3ead3d17	0.3383567
2	0xbf2d6701	-0.67735296
3	0x3eabed54	0.33579504
4	0xbe9f4f22	-0.3111506
5	0x3ed36959	0.4129131
6	0xbe540fe4	-0.20709187
7	0xbe032882	-0.12808421
8	0x3e327192	0.17426136
9	0xbf03c4ac	-0.5147197
10	0xbdfbd84f	-0.12297117
11	0xbe879040	-0.26477242
12	0x3e8c3cd9	0.27390173
13	0xbdf1375d	-0.11778138
14	0x3ed1abdc	0.4095143
15	0x3ea12297	0.31471702
16	0xbea4b2af	-0.32167575
17	0xbeb2d3eb	-0.34927306
18	0x3ed6bff8	0.41943336
19	0x3ebb9117	0.36634132
20	0x3f06f6c1	0.52720267
21	0xbf050ae1	-0.51969725
22	0xbee4944d	-0.44644395
23	0xbde9379e	-0.11387561
24	0xbceb32ec	-0.028710805
25	0xbebd224a	-0.36940223
26	0xbe5b0940	-0.21390247
27	0x3e8952c1	0.2682095
28	0x3e4a888f	0.19778655
29	0x3eb20465	0.34768978
30	0xbdc9065c	-0.09815666
31	0xbd0f0e25	-0.0349256
32	0xbee9a7bd	-0.45635787
33	0x3d92e579	0.07172675
34	0x3eb53a87	0.35396215
35	0x3dcc678d	0.09980688
36	0xbf0cf56f	-0.55062
37	0x3e8b12e4	0.2716285
38	0x3eaf39de	0.34223837
39	0x3ed0081d	0.4063119
40	0x3ed3e336	0.41384286
41	0x3d255cfc	0.04037188
42	0x3d6cc179	0.057801697
43	0xbe7cd83f	-0.24691866
44	0x3f2a46db	0.66514367
45	0x3e011d8d	0.12608929
46	0xbf128123	-0.57228297
47	0x3e9463c5	0.28982368
48	0x3f19ff83	0.60155505
49	0xbe9da605	-0.30790725
50	0xbef58af8	-0.47957587
51	0x3e961235	0.29310766
52	0x3f07a5c4	0.52987313
53	0x3ee1e06c	0.44116533
54	0xbee95f80	-0.45580673
55	0x3ec79ecd	0.38988343
56	0xbdfdfd0e	-0.12401782
57	0xbecc8b31	-0.39949945
58	0x3e5d5f51	0.21618392
59	0xbf34e154	-0.70656323
60	0xbecf467f	-0.40483472
61	0x3eacc179	0.33741358
62	0xbedd93b2	-0.43276745
63	0x3f0997f1	0.5374747

TransformerBlocks.0.feedforward.0.bias f4 [16]
0	0xbe9f67e6	-0.31133956
1	0xbe4a28ec	-0.19742173
2	0x3f1326dd	0.57481176
3	0xbeddb17a	-0.43299466
4	0x3f043179	0.5163799
5	0x3eba6772	0.36407048
6	0xbf0dc273	-0.5537483
7	0x3e631219	0.22174872
8	0x3f086c85	0.5329059
9	0x3de74a3c	0.11293456
10	0x3ea0ba17	0.31391975
11	0x3dc6e5ff	0.09711837
12	0x3edcce5b	0.43126187
13	0x3eff0882	0.49811178
14	0xbe96ee74	-0.294788
15	0x3d983766	0.074324414

TransformerBlocks.0.feedforward.2.weight f4 [4, 16]
0	0xbe450859	-0.19241466
1	0x3e48e647	0.19619094
2	0x3e342bd6	0.17594847
3	0xbe308dbb	-0.17241566
4	0x3e402f7e	0.18768117
5	0xbd6f02b0	-0.058352172
6	0x3c96f08a	0.018425245
7	0x3e004e1b	0.12529795
8	0x3e8bed05	0.2732927
9	0x3e2a8261	0.16651298
10	0x3e016368	0.12635577
11	0xbea5f3f3	-0.3241268
12	0xbe54db68	-0.20786822
13	0xbde5e64f	-0.112255685
14	0x3e839424	0.2569896
15	0x3bba9a93	0.005694696
16	0xbd8c6461	-0.06855083
17	0x3e9df5f0	0.30851698
18	0x3ea29573	0.31754646
19	0xbe267086	-0.16253862
20	0x3c82a6e0	0.015948713
21	0x3e45d90e	0.19321081
22	0x3d20c499	0.03924999
23	0x3e5813fb	0.21101372
24	0x3e4fb765	0.20284803
25	0x3e9a8417	0.30178902
26	0x3e375342	0.17902854
27	0x3dad471b	0.08460828
28	0x3e8d43bd	0.27590743
29	0x3e07d33c	0.13264173
30	0x3e8f0d12	0.2793966
31	0x3df5bb45	0.119986095
32	0x3e91b582	0.28458792
33	0xbe5fad59	-0.2184347
34	0x3e5a5841	0.21322729
35	0x3d3a0102	0.045411117
36	0x3e25dc12	0.16197231
37	0x3e85e375	0.26150098
38	0xbd919a06	-0.07109456
39	0xbdf603db	-0.12012454
40	0xbe388705	-0.18020256
41	0xbe2eecaf	-0.17082475
42	0xbde1dd90	-0.11028588
43	0x3d53016e	0.051515035
44	0x3e82d785	0.25555053
45	0xbe1f7ff9	-0.15576161
46	0xbe6dfd50	-0.23241162
47	0x3e82787e	0.25482553
48	0xbe743a40	-0.23850346
49	0xbd0a1a31	-0.033716384
50	0xbe9c12d6	-0.3048312
51	0x3e32acd8	0.17448747
52	0xbe9fb8d1	-0.3119569
53	0xbde1b8b7	-0.1102156
54	0x3d1dc993	0.038522314
55	0xbd6c426a	-0.057680525
56	0xbe43b5a8	-0.19112265
57	0xbe970e17	-0.29502937
58	0x3d9317fd	0.0718231
59	0xbe111a2d	-0.14170142
60	0x3dc25eb4	0.094907194
61	0xbdae3787	-0.08506685
62	0xbe891c86	-0.26779574
63	0x3b11c158	0.0022240486

TransformerBlocks.0.feedforward.2.bias f4 [4]
0	0x3ea4cb7d	0.321865
1	0x3e439481	0.19099618
2	0xbd788d5d	-0.06068169
3	0xbd7a2511	-0.061070506

TransformerBlocks.1.attention.toqueries.weight f4 [12, 4, 6]
0	0xbdfc9702	-0.1233349
1	0x3d1cca37	0.038278785
2	0xbd76bf0d	-0.060240794
3	0xbdc9e67f	-0.09858417
4	0x3daa019b	0.083010875
5	0x3d9e5481	0.077309616
6	0xbddd93f9	-0.10819239
7	0xbe8efe79	-0.27928522
8	0x3cb88bfc	0.022527687
9	0xbe85ec1a	-0.26156694
10	0x3d85028f	0.06494629
11	0xbe851e53	-0.25999698
12	0xbdb0859a	-0.086192325
13	0x3e757b9e	0.23972937
14	0xbd6f9979	-0.058495972
15	0x3e4ab377	0.19795023
16	0xbe0d202f	-0.13781808
17	0x3d5d755b	0.054066997
18	0x3e4b4904	0.19852072
19	0x3e944b86	0.2896387
20	0x3e847be5	0.25875774
21	0x3d1ccd99	0.03828201
22	0xbd837083	-0.06417944
23	0xbcfb0212	-0.030640636
24	0xbe10c953	-0.14139299
25	0xbdd4ad42	-0.10384609
26	0x3d9e6767	0.07734566
27	0x3d7f25c1	0.062291864
28	0x3dad7b31	0.084707625
29	0xbd0af0ea	-0.03392116
30	0xbc60db93	-0.013724226
31	0xbe740ba4	-0.23832566
32	0xbdae33b6	-0.08505957
33	0xbc0bf0a7	-0.008541263
34	0xbe4a079b	-0.19729464
35	0xbe5c2a96	-0.2150062
36	0x3e059377	0.13044535
37	0x3b31b906	0.002711834
38	0x3e3c7ab1	0.18406178
39	0xbd87d7cf	-0.06632959
40	0x3e6fdf65	0.23425062
41	0x3df6f9b3	0.12059345
42	0x3e1e7187	0.15472995
43	0x3e6067fd	0.21914668
44	0xbdc07dac	-0.0939897
45	0x3e8f6e61	0.280139
46	0x3e67ba38	0.2262963
47	0x3e905c82	0.28195578
48	0xbbd6bf6c	-0.006553581
49	0xbe1a115e	-0.15045688
50	0xbe3d6842	-0.18496802
51	0x3d036599	0.032079313
52	0xbe858d62	-0.2608443
53	0xbcbf1957	-0.023327513
54	0x3c45b946	0.012068098
55	0xbdce6125	-0.100771226
56	0x3ca628a3	0.020283049
57	0xbe2788bb	-0.16360752
58	0xbd0974a2	-0.033558495
59	0xbe590e74	-0.2119692
60	0xbdf2b65e	-0.1185119
61	0x3e7322fa	0.23743811
62	0x3e21c62f	0.15798257
63	0x3da8bc53	0.08239045
64	0x3d8442bd	0.06458042
65	0x3e1b075d	0.15139528
66	0xbda2abdf	-0.07942938
67	0x3e3190c0	0.17340374
68	0xbd4992bb	-0.0492122
69	0x3e8b6ab0	0.27229834
70	0xbd896011	-0.06707776
71	0x3e813297	0.2523391
72	0x3d8c3c48	0.06847435
73	0x3e940055	0.28906503
74	0x3e99b572	0.30021244
75	0x3e3f7eab	0.18700664
76	0xbd5998de	-0.0531243
77	0x3dafb1f8	0.08578867
78	0x3b1a6116	0.0023556403
79	0x3c9face7	0.019491626
80	0xbd38e6d7	-0.04514202
81	0xbdccf482	-0.10007574
82	0xbdd64f9a	-0.104644015
83	0x3e2bc4c2	0.16774276
84	0x3d10bcad	0.035336185
85	0x3deef2f4	0.116674334
86	0x3cb055c8	0.021525279
87	0xbe856d14	-0.26059783
88	0xbe38a25b	-0.18030684
89	0xbe0f1b2f	-0.13975213
90	0xbe2e7dd9	-0.17040195
91	0x3dcdbf15	0.10046212
92	0x3c8d827c	0.017274134
93	0xbe7d7fab	-0.24755733
94	0x3d70a335	0.058749396
95	0xbe75da3d	-0.24009033
96	0x3c9b8e31	0.0189887
97	0x3e6f98b8	0.23398101
98	0x3e19f49f	0.15034722
99	0x3e83acd8	0.25717807
100	0xbcdc2684	-0.026873834
101	0x3e7c1810	0.24618554
102	0x3e221ac0	0.15830517
103	0x3c31e2d4	0.010857303
104	0x3e4a81b8	0.19776046
105	0x3e8f3769	0.27971962
106	0xbd3b73b8	-0.045764655
107	0xbcfd545f	-0.03092402
108	0xbd0089b4	-0.031381324
109	0xbd621072	-0.055191465
110	0xbcf2eb06	-0.029653084
111	0xbe43cbd7	-0.19120727
112	0xbd2b311d	-0.041794885
113	0x3d0b13ec	0.033954546
114	0xbdbdbde0	-0.092647314
115	0xbd89ad34	-0.06722489
116	0xbc7f4495	-0.015580316
117	0xbe08eeec	-0.13372391
118	0xbdd003d3	-0.101569794
119	0xbd67014e	-0.05639773
120	0x3d8d2e0b	0.068935476
121	0x3e803f6a	0.2504838
122	0xbdcc72d2	-0.09982838
123	0xbdbebe17	-0.093136005
124	0x3e50deb3	0.20397453
125	0x3e0cc774	0.1374796
126	0x3e15bdb5	0.14623149
127	0x3d26c4c9	0.040715013
128	0x3e84184d	0.2579979
129	0xbd9f2f9c	-0.07772753
130	0xbd0dbbeb	-0.03460304
131	0x3d65dd5c	0.056119308
132	0x3e0e91f8	0.1392287
133	0xbe2462be	-0.16053292
134	0xbdf8188c	-0.12114057
135	0x3e0fdfd7	0.14050232
136	0xbe0d8d47	-0.13823424
137	0xbd298906	-0.04139044
138	0x3d6261e8	0.055269152
139	0xbe22caea	-0.15897718
140	0xbc65455a	-0.0139935855
141	0xbe33c0df	-0.17554043
142	0xbe361f09	-0.17785276
143	0xbdddbd40	-0.10827112
144	0x3daa01c7	0.0830112
145	0x3e77bcf0	0.24193168
146	0x3e4967e7	0.19668542
147	0x3e1f24fe	0.15541455
148	0x3d99a10c	0.075014204
149	0x3d394c74	0.045238927
150	0x3e149ed1	0.14513709
151	0x3d100d5b	0.035168987
152	0x3e02debc	0.12780279
153	0x3c044a5f	0.008074372
154	0xbd5c4c84	-0.05378391
155	0x3e51002a	0.20410219
156	0xbc66694b	-0.01406319
157	0xbdd63fe0	-0.10461402
158	0x3cfeacb4	0.03108821
159	0x3bc3aef3	0.0059717833
160	0x3da61df7	0.08111184
161	0xbd9eb905	-0.077501334
162	0xbe80c79d	-0.25152293
163	0xbe286d46	-0.16447935
164	0x3de4d3bb	0.11173197
165	0xbe654ed9	-0.22393359
166	0xbdf242db	-0.11829158
167	0xbdfff617	-0.1249811
168	0xbd62065b	-0.055181842
169	0x3dd10892	0.10206713
170	0xbc98d843	-0.01865781
171	0x3da37935	0.07982103
172	0xbd11fc23	-0.035640847
173	0x3e61ccac	0.22050732
174	0x3d9a5b3a	0.07536931
175	0xbdf400b3	-0.11914196
176	0x3e26ebc5	0.16300876
177	0xbd660d54	-0.056165054
178	0x3e3de559	0.1854452
179	0x3de262e4	0.11054018
180	0x3cf12fe0	0.029441774
181	0xbe24c86a	-0.16092077
182	0xbe6bec93	-0.23039465
183	0xbd817c13	-0.063224934
184	0xbe13b2a3	-0.14423613
185	0xbde554aa	-0.11197789
186	0xbd29336c	-0.041308805
187	0x3d91dd2a	0.07122262
188	0xbd831328	-0.06400138
189	0x3d7535dc	0.059865817
190	0x3c053cc8	0.008132167
191	0xbe66a434	-0.22523576
192	0x3dbda2fa	0.09259601
193	0x3e03ba30	0.12863994
194	0x3e1f6a9a	0.15568009
195	0x3e3aff80	0.18261528
196	0x3e1da3ac	0.15394467
197	0x3e44070c	0.19143313
198	0x3e517f6f	0.20458768
199	0x3d173bb9	0.03692219
200	0x3e794a04	0.24344641
201	0xbdcc8672	-0.09986581
202	0x3d558df9	0.05213735
203	0x3e802734	0.2502991
204	0xbdb1022a	-0.08642991
205	0xbded855f	-0.11597704
206	0xbd8d019c	-0.068850726
207	0x3cdd9e86	0.027053129
208	0xbc67c5f7	-0.01414632
209	0x3e0dc6d4	0.13845378
210	0x3dafe290	0.08588135
211	0x3ce8d58d	0.028422141
212	0xbe518d96	-0.20464167
213	0xbd602b32	-0.054728694
214	0xbe7f1278	-0.24909389
215	0xbc028581	-0.0079664
216	0x3e93637b	0.28786835
217	0x3e93aa02	0.28840643
218	0xbcb5e9d8	-0.022206232
219	0x3cf35da5	0.02970774
220	0xbcb5b236	-0.022179704
221	0x3dea17cb	0.114303194
222	0xbc6599dc	-0.014013734
223	0x3b05772d	0.0020365224
224	0x3e6e85a4	0.23293167
225	0x3e80c37b	0.2514914
226	0x3d830169	0.06396753
227	0x3d356b08	0.044291526
228	0xbe70e00e	-0.2352297
229	0x3e098d37	0.13432775
230	0xbe025134	-0.12726289
231	0xbe6777f0	-0.22604346
232	0xbe3e394a	-0.18576542
233	0x3cfd33d1	0.030908497
234	0xbdfe3277	-0.12411969
235	0xbc5f8999	-0.013643646
236	0xbdc25ba9	-0.09490139
237	0xbe5b9e2d	-0.21447058
238	0xbd1580bf	-0.036499735
239	0xbdb3efad	-0.08785949
240	0x3e7695e1	0.24080612
241	0xbd740e36	-0.059583865
242	0x3e2b290a	0.16714874
243	0x3e32b60f	0.17452262
244	0x3e81744b	0.25284037
245	0x3dce410f	0.10071003
246	0x3e7b15d1	0.24520041
247	0xbd2f5326	-0.042803906
248	0x3b9058ef	0.004405133
249	0xbdaf4ad0	-0.08559191
250	0xbd038254	-0.032106712
251	0x3d681dc6	0.05666902
252	0x3df51354	0.11966577
253	0xbcff47ac	-0.031162106
254	0x3bdea61b	0.0067947037
255	0xbd78f700	-0.060782433

TransformerBlocks.1.attention.toqueries.bias f4 [12]
0	0xbe436774	-0.19082433
1	0xbe8b76ee	-0.27239174
2	0xbe1f5763	-0.15560679
3	0x3e2e927d	0.17048068
4	0x3ba4e3fa	0.0050320597
5	0x3e0823d6	0.1329492
6	0xbcd5a159	-0.026077913
7	0xbc0eefbc	-0.008724149
8	0x3e75ce8b	0.24004571
9	0x3e3ec747	0.18630706
10	0xbd94e968	-0.07271081
11	0x3dc5ba2f	0.09654652

TransformerBlocks.1.attention.tokeys.weight f4 [12, 4, 6]
0	0x3da3b3dc	0.0799329
1	0x3e1b0e09	0.15142073
2	0x3de72815	0.11286942
3	0xbe0c9a20	-0.13730669
4	0x3d322f95	0.04350241
5	0xbe3bd9df	-0.1834483
6	0x3e1610c0	0.14654827
7	0x3e425928	0.18979323
8	0xbdbd3071	-0.09237755
9	0xbcd5eceb	-0.026113948
10	0x3c94814e	0.018128064
11	0x3dd556a9	0.1041692
12	0x3d8c881e	0.068619
13	0x3e03951e	0.12849852
14	0x3ba88123	0.0051423474
15	0xbe873540	-0.26407814
16	0xbe497bd0	-0.19676137
17	0xbdd10e44	-0.10207799
18	0x3dbe746e	0.09299551
19	0xbe7092b1	-0.23493458
20	0x3daacbfb	0.083396874
21	0x3df53e09	0.11974723
22	0x3db9d91a	0.09074612
23	0xbe480173	-0.19531803
24	0x3c88979b	0.016673854
25	0x3e4cb70d	0.19991703
26	0x3d0535fc	0.032522187
27	0xbd520cef	-0.051281866
28	0x3dfaface	0.122548684
29	0x3e237ef6	0.159664
30	0xbd76f535	-0.06029244
31	0x3da9b156	0.08285777
32	0x3e53bee9	0.20678295
33	0xbd16b083	-0.03678943
34	0x3dc53b59	0.0963046
35	0x3e86e7b2	0.26348644
36	0xbcd159c3	-0.025555497
37	0x3dbf73f9	0.09348292
38	0xbd57dc65	-0.05270042
39	0xbe03ced7	-0.12871872
40	0xbe4744ec	-0.19459885
41	0x3db9460e	0.09046565
42	0x3e0649e5	0.13114126
43	0xbe3d4a91	-0.18485476
44	0xbdc25955	-0.09489695
45	0xbd801332	-0.06253661
46	0xbd6c94af	-0.057758983
47	0x3c85a7f9	0.016315447
48	0xbd7a45cd	-0.061101723
49	0xbe2843c0	-0.16432095
50	0x3d8b031a	0.06787701
51	0xbe6331c0	-0.22186947
52	0xbc3fcc4e	-0.011706425
53	0xbe364df3	-0.17803173
54	0xbe48606c	-0.19568032
55	0x3c248d19	0.010043406
56	0xbd5ca951	-0.05387241
57	0x3db196fa	0.086713746
58	0xbd88b4be	-0.06675099
59	0xbde33c31	-0.11095465
60	0x3e615393	0.22004537
61	0x3d1635f7	0.03667256
62	0x3e816bcf	0.25277564
63	0x3c7cb3ab	0.015423696
64	0x3e66851f	0.22511719
65	0x3d241587	0.040059593
66	0x3dc263c8	0.09491688
67	0xbd514a5e	-0.051096313
68	0x3d5bd3a7	0.053668644
69	0x3e6acc6d	0.22929545
70	0x3cb2ec92	0.021841321
71	0x3e3e23b1	0.18568303
72	0x3e593dbb	0.21214955
73	0x3da270cf	0.07931673
74	0xbdc1e0d6	-0.09466712
75	0x3c78059d	0.015138057
76	0x3df5f9fa	0.1201057
77	0x3dc83fb4	0.097777754
78	0x3cf6d152	0.030129109
79	0xbe2aa459	-0.16664256
80	0x3e1156c1	0.1419325
81	0xbdd7e29c	-0.10541269
82	0x3dc6ed81	0.09713269
83	0xbd01f25d	-0.031725276
84	0xbd273383	-0.04082061
85	0xbda6cf35	-0.0814499
86	0x3e0b3863	0.13595729
87	0x3daac5e2	0.083385244
88	0xbdddc017	-0.10827654
89	0xbe43546f	-0.19075178
90	0x3e0b6d69	0.13615955
91	0xbcadc962	-0.02121419
92	0x3d96ce64	0.07363585
93	0x3df871b7	0.121310644
94	0x3eae7a34	0.3407761
95	0xbd8e2377	-0.06940358
96	0xbd56edc6	-0.052472852
97	0xbe655f28	-0.2239958
98	0xbd46b768	-0.048514754
99	0xbddf9530	-0.10917127
100	0x3c3bb0bf	0.011455714
101	0xbe73200e	-0.23742697
102	0xbe32730d	-0.17426701
103	0xbe11c76c	-0.1423623
104	0xbe0300a6	-0.12793216
105	0x3de00492	0.10938372
106	0xbcb582e8	-0.022157148
107	0xbe0f9b17	-0.14024006
108	0xbe1bdef7	-0.15221773
109	0xbd99ef1a	-0.07516308
110	0xbdfd3d61	-0.12365223
111	0x3dd46a22	0.10371806
112	0x3e009bc6	0.12559423
113	0x3e143a19	0.14475287
114	0x3e1c269e	0.15249106
115	0x3e1051a7	0.14093648
116	0xbd25d901	-0.040490154
117	0x3e0fb84a	0.14035144
118	0x3c46e3b3	0.012139249
119	0x3d41eb3a	0.04734347
120	0xbde380a3	-0.1110852
121	0x3da8f024	0.08248928
122	0xbe9b841c	-0.3037423
123	0x3e6918a2	0.22763303
124	0xbe26ee2b	-0.16301791
125	0x3de16ec2	0.110074535
126	0x3e2bd022	0.16778615
127	0xbca7d75b	-0.020488432
128	0xbc95d759	-0.018291162
129	0x3e39d0ae	0.18146011
130	0x3e4ac7ec	0.19802827
131	0x3e4a3f4a	0.19750705
132	0x3dac25f6	0.08405678
133	0xbc471315	-0.012150546
134	0xbe864752	-0.26226288
135	0xbd77394a	-0.06035737
136	0xbdd81486	-0.105507895
137	0xbe6fd3eb	-0.23420684
138	0xbcee8e37	-0.029120548
139	0xbc2f3262	-0.010693165
140	0x3dd19d19	0.10235042
141	0xbdd94818	-0.10609454
142	0xbd0282bc	-0.03186296
143	0xbe8428ef	-0.2581248
144	0x3e219e0a	0.15782943
145	0xbe01aa8e	-0.12662718
146	0x3d0aadd6	0.03385719
147	0x3d6e7617	0.058218088
148	0xbdd3e70c	-0.10346803
149	0x3e5867ad	0.21133299
150	0x3e171db8	0.1475743
151	0xbe56b3a6	-0.20966968
152	0x3d58aad9	0.052897308
153	0xbd49f071	-0.04930157
154	0x3db05b91	0.08611215
155	0x3e0c4d84	0.13701445
156	0x3d72085b	0.05909
157	0x3e140d2f	0.14458154
158	0xbe23f63b	-0.16011898
159	0x3da56e82	0.08077718
160	0x3e4f8705	0.2026635
161	0xbe554d92	-0.20830372
162	0x3d8c454e	0.06849156
163	0xbcb81f9f	-0.022476016
164	0x3ddf1b65	0.10893897
165	0x3e7a16b8	0.24422729
166	0xbc6edbf9	-0.014578813
167	0x3e31ec4f	0.17375301
168	0xbdb8ff94	-0.09033123
169	0xbcd2bd1f	-0.025724946
170	0xbcdd9433	-0.027048206
171	0x3d269e4f	0.04067832
172	0xbe6f6ca2	-0.23381284
173	0xbe472dff	-0.1945114
174	0xbdde1e58	-0.10845631
175	0x3d4e7087	0.050400283
176	0xbdd8655e	-0.10566209
177	0xbe6f9047	-0.23394881
178	0xbd300358	-0.04297194
179	0xbdc10161	-0.09424091
180	0xbdde2bb2	-0.10848178
181	0x3e33d065	0.17559965
182	0xbda93e6b	-0.082638584
183	0xbcb8855d	-0.02252453
184	0x3e4c9168	0.19977343
185	0x3da19a75	0.078907885
186	0x3e434c14	0.1907199
187	0x3dfbc366	0.12293129
188	0x3e41ecfe	0.18938062
189	0x3e4eda06	0.20200357
190	0xbdb17e56	-0.08666675
191	0xbda6dcda	-0.08147593
192	0x3d0158d3	0.03157885
193	0xbe07f10a	-0.13275543
194	0xbb888f69	-0.0041674864
195	0x3e5a4cdc	0.21318382
196	0xbc48fa41	-0.012266696
197	0x3e4f635f	0.20252751
198	0x3e0530a1	0.13006832
199	0x3d565221	0.052324418
200	0x3e86304e	0.2620873
201	0xbc9be38d	-0.019029403
202	0x3e536024	0.20642143
203	0xbc361e2e	-0.011115594
204	0x3d86c69e	0.06580852
205	0xbe5fed00	-0.21867752
206	0xbe2d227e	-0.16907689
207	0xbe19d295	-0.15021737
208	0xbd562e63	-0.05229033
209	0xbe03eb7d	-0.128828
210	0xbd98a765	-0.07453803
211	0xbe3ccc43	-0.18437295
212	0x3cbc4012	0.02297977
213	0x3d95142b	0.07279237
214	0xbe2299f8	-0.15879047
215	0xbe18acda	-0.14909688
216	0xbe69d234	-0.22834092
217	0xbdf66cd8	-0.12032479
218	0x3e679429	0.22615112
219	0xbd9f3c9f	-0.077752344
220	0x3df7c6f9	0.12098498
221	0xbdfd8096	-0.123780414
222	0x3d0286ba	0.031866767
223	0xbc5f56a8	-0.0136315
224	0xbe9783b1	-0.2959266
225	0x3dc6aade	0.09700559
226	0x3d89e8dd	0.06733868
227	0xbe22d31e	-0.15900847
228	0x3e33deb7	0.17565428
229	0xbe4e9a6e	-0.20176098
230	0x3da02f3e	0.07821511
231	0x3e0dc8f3	0.13846187
232	0x3da7c3bc	0.0819163
233	0x3ae23130	0.0017257091
234	0xb99f1647	-0.0003034344
235	0x3df2f9d1	0.11864055
236	0xbdc3cb79	-0.09560294
237	0x3dced67a	0.10099502
238	0x3d01e65f	0.03171384
239	0xbd1cd2b7	-0.03828689
240	0xbe146608	-0.14492047
241	0x3d7ce213	0.06173904
242	0x3c5b84b9	0.013398343
243	0xbc33c5b0	-0.010972425
244	0xbdeacc74	-0.114647776
245	0x3daaa0fa	0.08331485
246	0x3d1985c6	0.037481092
247	0x3d833702	0.06406976
248	0xbb2db506	-0.0026505603
249	0xbe330f32	-0.17486265
250	0xbd9f4a38	-0.07777828
251	0xbd4eac4b	-0.05045728
252	0xbd825541	-0.06363917
253	0x3d11a7c0	0.03556037
254	0x3def7292	0.116917744
255	0x3df1583b	0.11784407

TransformerBlocks.1.attention.tokeys.bias f4 [12]
0	0x3e84457b	0.2583426
1	0x3d003496	0.03130015
2	0xbe80d967	-0.25165865
3	0x3e1fe5fc	0.15615076
4	0xbdf62791	-0.120192654
5	0x3e463216	0.19355044
6	0x3dc4d26b	0.096104465
7	0xbe87b25a	-0.2650326
8	0x3dfb1a17	0.122608356
9	0x3dc8202c	0.09771761
10	0xbe631161	-0.22174598
11	0x3d042946	0.032265924

TransformerBlocks.1.attention.tovalues.weight f4 [12, 4, 1]
0	0x3de77b06	0.11302762
1	0xbe0e0879	-0.1387042
2	0x3ba46b04	0.00501764
3	0xbeb6da72	-0.35713536
4	0xbeab7407	-0.3348696
5	0xbe5b51e5	-0.21417959
6	0xbe232c60	-0.15934896
7	0xbe3fe8f7	-0.18741213
8	0xbe5e9733	-0.21737365
9	0x3e8a3b79	0.269985
10	0x3de5d4de	0.11222242
11	0xbf0ecbfb	-0.5578
12	0xbef8edae	-0.48618835
13	0x3ee3fa0a	0.44526702
14	0x3e9f884c	0.31158674
15	0x3e253b25	0.16135843
16	0xbe69537b	-0.22785752
17	0x3e77fb5d	0.24216981
18	0x3e61d443	0.22053628
19	0xbc141c52	-0.009039955
20	0x3d337010	0.043808043
21	0xbe8254dd	-0.2545537
22	0x3ef3e763	0.47637472
23	0x3e8b0f9a	0.2716034
24	0x3f0df586	0.55452764
25	0x3e512802	0.20425418
26	0xbe68e83c	-0.2274484
27	0x3ec2995c	0.3800763
28	0xbea232d6	-0.3167941
29	0xbe9f6c2d	-0.3113722
30	0xbdfef992	-0.124499455
31	0x3e9b34ba	0.30313665
32	0x3ec98c2c	0.39364755
33	0x3dece8ae	0.11567818
34	0xbec1aff2	-0.37829548
35	0xbde6677b	-0.11250206
36	0x3f14a6b1	0.5806685
37	0x3ee825f5	0.4534146
38	0x3e30f1bb	0.17279713
39	0x3de169fc	0.11006543
40	0x3db700f5	0.089357294
41	0x3ef9bf6e	0.48778862
42	0xbcd4f15b	-0.025993994
43	0x3ea15941	0.31513408
44	0x3d22bba8	0.039729744
45	0x3f03d49a	0.5149628
46	0xbee5851a	-0.4482811
47	0xbebc7962	-0.36811358
